saved_models/lstm3-seq100-cut500-epcs1-qu8-nq1.pt (torch, 37505 bytes, 12 tensors)

model.models.0.clayer_in.weight f4 [4, 309]
000000 f2 7c 98 3c 1f 5c 06 bd 51 22 5e 3a 6a 05 70 bc
       0.018614266 -0.032802697 0.00084737415 -0.014649728
000010 80 16 43 3d 96 e6 2a 3d ce df 19 bc 69 c6 1e 3c
       0.04762888 0.04172381 -0.009391738 0.009690859
000020 61 6f 20 bd 8f a7 9e bc 40 17 94 3c 7f 25 42 bc
       -0.03916872 -0.019367008 0.018077493 -0.01184976
000030 70 33 66 3d ae 90 98 ba a0 15 f9 bb d3 3f a1 bc
       0.0562014 -0.0011639798 -0.007601455 -0.019683754
000040 e3 37 5b 3d 38 e5 c1 3c 28 77 6a 3d 9a 23 6c bc
       0.053520095 0.02366887 0.057242543 -0.014412785
000050 3e da 6e 3d ac 0d 17 3d fc 13 d8 bc 20 b8 ae bb
       0.0583136 0.036878273 -0.026376717 -0.005332008
000060 10 60 07 3d 05 51 90 bb 01 e0 0b bd 32 52 c0 3b
       0.033050597 -0.0044041895 -0.034149174 0.0058691734
000070 2f 87 e3 ba c9 4e 15 3b d2 24 c4 bc 56 bb fe 3c
       -0.0017359013 0.0022782555 -0.023943339 0.031095188
000080 15 b2 47 3d 6f 58 2d 3d 35 6f c9 3c e3 eb 50 3c
       0.048753817 0.042320665 0.02458916 0.012751552
000090 be cb 3b bd f0 f1 1d bc 9c 6f 91 3c 3f 75 a6 3c
       -0.0458486 -0.009640202 0.017753415 0.02031958
0000a0 56 74 14 bc 23 9d 2d 3d fa 8b 5f bc 1d b6 84 3b
       -0.00906094 0.042386185 -0.013644213 0.00405003
0000b0 b9 bc 46 3d b0 2f 4c 3c a1 11 f3 3c e2 19 df 3c
       0.048519824 0.012462541 0.029671492 0.027234022
0000c0 5a c2 17 3b 4f 98 aa bc 91 88 93 bb db 08 19 3d
       0.0023156614 -0.02082458 -0.004502364 0.03736196
0000d0 d7 ca 1e bd d1 21 12 3d 81 15 55 3d b0 9c 3e 3d
       -0.038767662 0.03567678 0.05202246 0.046536148
0000e0 ce 5f c5 bb e8 3e ad bc a6 9f ee 3a e5 f2 02 bd
       -0.0060233837 -0.02114816 0.0018205538 -0.031969924
0000f0 d2 2c 13 bd 51 df 07 3c 60 da d9 3c dc fb 1d bd
       -0.035931416 0.008292989 0.026593387 -0.03857027
000100 0d 1a a8 bc 9a e8 44 3b 46 f3 57 3d e7 6d bc bc
       -0.020520234 0.0030045868 0.052722238 -0.023001624
000110 1e 4c 11 3d d4 d8 e4 bb 21 27 71 bc 1f c9 9c bc
       0.03547298 -0.0069838557 -0.014718802 -0.01913887
000120 f8 db 4d 3d cb 2e 38 bd fa e3 58 3c b6 eb 40 bd
       0.050258607 -0.0449665 0.013237948 -0.04709979
000130 b6 2f d4 bc c4 c6 4e bd c5 cd 5e bd 1a 22 52 3c
       -0.025901657 -0.050482526 -0.054395456 0.012825513
000140 17 6d 1d 3d 19 2d 33 bd 60 3e 07 bd 30 4e 4a bd
       0.038434114 -0.04374418 -0.03301847 -0.04939097
000150 23 d2 ad bc 41 c8 6c bc e1 55 30 bd 2e fa 1f 3d
       -0.021218365 -0.014452041 -0.04305065 0.03905695
000160 ce 91 32 3d 91 0d 41 bd 2d fb d6 bc 6c da 0f bd
       0.04359608 -0.04713208 -0.026242817 -0.035120413
000170 32 31 45 3d bb 7a 2b bd e5 f4 1d bd 86 ce 42 bd
       0.04814262 -0.04186509 -0.038563628 -0.047560237
000180 0a 38 45 bd 88 92 28 3d 57 8c 9a 3b de fc 0f bd
       -0.048149146 0.041155368 0.004716437 -0.035153262
000190 4f af 39 3d 11 51 c3 3b eb 00 51 3c 5a 10 04 3c
       0.045333203 0.0059605916 0.0127565665 0.008060539
0001a0 6d b0 69 3d 6b 10 5a 3d 26 d0 8e bc 6d 31 37 bd
       0.05705302 0.053238314 -0.017433237 -0.04472487
0001b0 18 e7 d2 bc a9 0f 10 bd 0c d7 24 bd 18 25 4c 3d
       -0.02574496 -0.035171185 -0.040244147 0.049840063
0001c0 3a d3 4d bc 98 e2 6b bd 3d 61 ea bc aa f9 5a bd
       -0.012562567 -0.057589144 -0.02861082 -0.053460754
0001d0 8c d0 b0 bc 1c 6f c0 bc b6 9c 1e bd 4a 07 1b bd
       -0.021583818 -0.023490481 -0.03872367 -0.03784875
0001e0 20 f4 05 3d 70 16 f4 bc e7 26 b8 bb f8 4b 67 bd
       0.03270352 -0.029795855 -0.005619872 -0.056468934
0001f0 c5 bc 37 bd a2 e5 5c bd 76 d5 de bc fb d2 52 bd
       -0.04485776 -0.053929932 -0.027201395 -0.051470738
000200 40 52 f5 bc 12 4c 83 3b 14 f9 13 bd 57 52 00 3d
       -0.029946446 0.004006871 -0.03612621 0.031328525
000210 ba a3 8f bb d6 0a 31 bd 3f 23 34 3c f9 12 68 3b
       -0.0043835314 -0.043223225 0.010994731 0.00354117
000220 88 fc e9 3c 77 e6 4a 3d fe 0d e1 3c fb 8c d0 3c
       0.0285628 0.049536195 0.027472492 0.02545785
000230 2a 20 d7 3c 5d 9e 5a bc a1 ba db 3c 08 4f de bc
       0.026260454 -0.013343421 0.02682239 -0.027137294
000240 c5 76 42 bc 95 c6 23 bc 67 ea 01 3d 97 23 70 3d
       -0.011869137 -0.009996076 0.031717684 0.05862769
000250 6f 6f 53 bc 59 f8 05 3c c7 fe 28 bd 09 25 ac 3b
       -0.012904986 0.0081768865 -0.0412586 0.0052534384
000260 ce c8 0f bd cc bf ea bb 9d 2f 7a 3b 4d c7 61 bd
       -0.03510361 -0.0071639773 0.0038175352 -0.05512171
000270 2e 85 a3 3c 35 65 12 bd 67 52 c8 3b 08 59 b6 bb
       0.019960966 -0.03574105 0.0061133387 -0.0055648126
000280 42 12 14 3d e9 de c4 3c fd b7 38 bd c9 7d 37 3c
       0.036150225 0.024032073 -0.04509734 0.011199423
000290 82 0a 0e 3d f3 f9 76 b9 6b 93 bb bc d9 41 f9 3c
       0.03467799 -0.00023553502 -0.022897443 0.030426906
0002a0 97 8a 75 3c cd 69 23 bd 1c 00 e2 3c 9f 89 d2 bb
       0.014986656 -0.03989582 0.027587943 -0.006425097
0002b0 05 d2 8b 3c 91 43 ab bc e5 92 a0 bc cc 9d 35 bd
       0.017067919 -0.020906242 -0.019601295 -0.04433994
0002c0 4e b3 39 3d 60 3b 3e 3d 46 63 00 bd 2e a4 ee bb
       0.045337014 0.046443343 -0.031344675 -0.0072827553
0002d0 80 20 3a 3d da c7 ed bc 26 23 98 39 c4 53 cd bc
       0.04544115 -0.02902596 0.00029017887 -0.025064357
0002e0 ab df 5b bc fc f4 7c 3c 0c a5 a7 bb d6 f0 1b 3d
       -0.013420026 0.015439268 -0.0051161107 0.038071476
0002f0 84 eb 9a 3c 2d e0 7d bc c5 9c 8d bd dc cf 29 bc
       0.01891113 -0.015495342 -0.06914667 -0.010364499
000300 fa 44 81 bd e4 13 cf 3c 66 4f 18 3d 77 43 ce bc
       -0.06311984 0.02527804 0.037185095 -0.025178654
000310 04 c1 12 3b c1 3f 0d bc b2 2e 2f bc fc a5 eb 3c
       0.0022392878 -0.008621157 -0.010692285 0.028765671
000320 1d ed ba bc 2e 84 60 3d 48 23 18 bd 8f 16 9d 3c
       -0.022818143 0.054813556 -0.03714302 0.019175796
000330 6f 3d 55 3d b9 97 e1 bb b4 2b 24 bd dc da 4b 3d
       0.05206054 -0.006884542 -0.04008074 0.049769267
000340 9b 14 1b 3c 11 fa 57 bd 1d c9 ed 3c df da c1 3c
       0.009465362 -0.052728716 0.029026562 0.023663936
000350 fb c3 ea bb 65 0c e7 3a 21 3b 7e bc 0a 0d cc 3c
       -0.007164476 0.0017627595 -0.015517027 0.024908561
000360 42 3b 45 3d 3b 60 3f 3d 43 a1 f6 3c 34 fa aa 3b
       0.048152216 0.046722632 0.030106192 0.005217815
000370 04 9a 18 3d e6 2a 56 bc f8 17 53 3d db 1c a3 3c
       0.037256256 -0.013071751 0.05153653 0.01991122
000380 b8 ef 6d 3d a8 a2 ee bc f1 b1 ba bc 83 64 45 3d
       0.05808994 -0.029130295 -0.022789927 0.04819156
000390 9a ee 65 3d 71 6e 0c 3c 66 b9 65 3b 9d 28 f0 39
       0.05613575 0.008571253 0.0035053133 0.00045806626
0003a0 1a 2d 42 bd bd 60 1f 3c f3 74 01 bd e4 7e be bb
       -0.047406293 0.009727654 -0.031605672 -0.0058134664
0003b0 8e b5 34 3c 45 6e 0d 3d ce fb 1b bd 0f f8 e7 bc
       0.011029614 0.03452899 -0.038081937 -0.028316526
0003c0 41 50 ef 3c b2 b3 ea 3c 82 de 1c 3c 4f 47 49 3c
       0.029213073 0.028650139 0.009574534 0.012285068
0003d0 45 88 19 bd ec d3 bd bb af c7 c0 bc 5a 2f db bc
       -0.037483472 -0.0057930853 -0.023532717 -0.026755977
0003e0 19 68 91 3c b0 48 7d bc d1 08 40 bd 6d eb 1a 3d
       0.017749833 -0.015459225 -0.046883408 0.037822176
0003f0 63 fc f7 3c 37 1a 5d 3d 20 cc 01 bd de e5 2b 3c
       0.030271715 0.05398008 -0.03168881 0.010491816

model.models.0.clayer_in.bias f4 [4]
000000 71 d5 08 3c f6 38 86 3e 7f c9 c7 3d 3e ca b5 bd
       0.00835167 0.26215333 0.09755229 -0.08876465

model.models.0.clayer_out.weight f4 [308, 4]
000000 ab b5 c4 3e 58 14 5a be 5c 4f 35 be 68 b1 f1 be
       0.38419852 -0.21296823 -0.17706054 -0.47205663
000010 74 b2 bd be 02 3a ef 3e 76 31 d9 be e3 2c 8d 3d
       -0.3705021 0.46723944 -0.42420548 0.06893327
000020 1b 89 d6 3e 24 29 46 3e 55 3f 50 be 08 43 8c 3e
       0.41901478 0.19351631 -0.20336659 0.2739489
000030 db b1 5d 3e 53 76 a0 be 66 ca a3 be 05 5f af 3e
       0.21649878 -0.31340274 -0.31990355 0.34252182
000040 5b 77 d9 bd 10 10 db be 8b db 7e be 3b 8c ff be
       -0.106184684 -0.42785692 -0.24888436 -0.49911675
000050 3f 13 04 3e 84 e3 9b be a7 84 04 3e d3 ee b6 be
       0.12897967 -0.30447018 0.12941228 -0.35729083
000060 1e 45 82 3d 9f 05 32 3e 64 59 24 3e bf 16 46 be
       0.06360839 0.17384957 0.16049725 -0.19344614
000070 3a 8e a7 be ce e3 d5 be 3d 79 d8 3e 0e 0d 6c be
       -0.32725698 -0.41775364 0.42279997 -0.23051855
000080 d6 13 81 be 43 ba e6 3e 97 8c 88 3e 72 14 20 3e
       -0.25210446 0.4506398 0.26669762 0.156328
000090 21 cb e2 bd 76 9b c8 3c 8a b9 0f 3c 93 b2 c2 3e
       -0.110739 0.024488192 0.008772263 0.38026866
0000a0 bb 61 6c 3e 9c 11 95 be 33 71 66 bd fa 47 9e 3e
       0.23084156 -0.29114997 -0.0562603 0.3091429
0000b0 57 4a d4 3e e7 b4 fe bd 68 f4 ef be 71 06 6b be
       0.41462967 -0.12436848 -0.46866155 -0.22951676
0000c0 c5 e3 ad be 3a 2f 67 3e 0d 6c 3f be bd 0a d4 3d
       -0.33962837 0.22576609 -0.18693562 0.10353611
0000d0 bd 70 6e be 8a 42 3f 3e 61 8e 61 be 97 f5 9c be
       -0.23285194 0.18677726 -0.2202697 -0.3065612
0000e0 ca 50 8c be aa ff 6b 3e 3d bd 31 3d ee 6c 3d be
       -0.27405387 0.23046747 0.043393362 -0.18498585
0000f0 f6 63 f7 3e f9 33 69 3e 00 29 e3 3e fd 94 ad be
       0.48318452 0.22773732 0.44367218 -0.33902732
000100 b2 64 8f b9 48 34 41 3c cc 68 cc 3e 03 29 13 be
       -0.0002735011 0.01179225 0.39923704 -0.14371113
000110 f3 cf 9d 3e 54 0b e6 bd 8d 0e 5e 3e 90 e4 3b be
       0.30822715 -0.112326294 0.21685238 -0.18348908
000120 9f a8 6c 3e 46 f5 c9 be 20 2b 37 3e 77 18 1e 3e
       0.23111199 -0.3944494 0.17887545 0.1543902
000130 d0 4c fe 3e ca 22 36 3e e9 b4 00 3f 77 de 07 be
       0.49667978 0.17786708 0.50276047 -0.13268457
000140 06 03 9c 3e 35 73 fc be 83 be 9c 3d ba 36 65 3e
       0.30471057 -0.49306646 0.07653525 0.22384158
000150 00 43 c1 3e b8 5d 9b bb 4f fc ba be c0 a6 03 be
       0.3774643 -0.0047413968 -0.3652062 -0.12856579
000160 3b 71 d4 3e 4a 48 9b 3e 32 f0 ae be 3a c9 6b 3e
       0.41492638 0.3032859 -0.3416763 0.2302598
000170 84 53 3d 3e 44 18 05 be f1 41 dd 3e 07 a3 e0 be
       0.1848889 -0.12997538 0.43214372 -0.4387438
000180 2b 2f 7b bd 18 4f 06 be a2 c5 b7 be fc 23 bc 3e
       -0.06132428 -0.1311611 -0.3589297 0.36746204
000190 d2 42 dc 3e 37 c3 89 3e aa 7d 5e be d4 24 fc 3e
       0.4301973 0.2690675 -0.21727625 0.49246848
0001a0 30 8f fb 3e 63 8b d3 3e b3 50 eb be 9e a7 00 3f
       0.4913268 0.4131728 -0.45960006 0.50255764
0001b0 46 8a ed 3e b6 19 11 be 2f d1 d6 3e a9 d9 2f 3b
       0.46394557 -0.14169964 0.4195647 0.0026832616
0001c0 4f f1 66 3d 77 a7 bc bb 5f 6d ab 3e 3d 31 13 3e
       0.056382474 -0.005757268 0.3348188 0.14374252
0001d0 e9 be 55 bd b1 d8 d1 bd 24 76 fd 3e 47 ea f0 3e
       -0.05218402 -0.10246409 0.49504197 0.4705374
0001e0 3d 60 04 bd 11 94 b3 be 7d 3a 9c 3e 10 5c 1a 3d
       -0.032318342 -0.35073903 0.30513373 0.037685454
0001f0 b3 d2 b9 3d e3 5a bd 3e 24 f9 bc be b0 1b 27 3e
       0.09073391 0.36983404 -0.3690883 0.16319156
000200 5a d9 85 be d4 02 d7 be ca 6f 95 3b 6e e2 e6 3e
       -0.2614239 -0.41994345 0.0045604454 0.45094627
000210 8a 85 73 bd 22 74 15 be 9c 81 a6 3e 35 e5 f8 3e
       -0.059453525 -0.14595082 0.3252076 0.4861237
000220 2d 9f 5a 3d a4 6f 1f 3e d0 ed db 3e c3 36 a7 be
       0.053374458 0.15569931 0.42954874 -0.32658967
000230 e4 49 18 3e 3e 51 b5 bd 5b 07 ef be 2e 45 00 3f
       0.14871937 -0.08853386 -0.466853 0.5010556
000240 6c e1 ac 3e 5f 9a 9a 3e ac 5d 8f be cd 73 b6 3e
       0.33765733 0.301959 -0.28001153 0.35635224
000250 1b ae 1f 3e 1b b9 50 3e dd 11 f0 bd 02 50 7f 3e
       0.1559376 0.20383112 -0.11722157 0.24932864
000260 ea 92 bd 3e 8d 7d 9e 3e 0e 86 68 bc 8d 16 2e 3d
       0.3702615 0.30955163 -0.014192117 0.042501975
000270 08 2c fb be a4 49 a0 bc 30 23 89 3d be 7d c2 be
       -0.4905703 -0.019566365 0.066961646 -0.3798656
000280 d9 97 b4 be 03 39 c4 3e 21 e8 e7 3e 65 65 f7 3e
       -0.352721 0.38324746 0.45294288 0.48319545
000290 44 9e ee be 8e 80 9d 3e 9a 7d 83 3e 05 d6 8a 3e
       -0.46605122 0.30762142 0.25681764 0.2711641
0002a0 26 74 8d be 95 f8 4b bc 59 07 0d be 88 09 b7 bd
       -0.27627677 -0.012449403 -0.13772334 -0.08937365
0002b0 b7 27 65 3e 8a 34 1d be b1 0d ce 3d 35 e0 c8 be
       0.22378431 -0.15352073 0.10061205 -0.39233556
0002c0 94 3b 48 3e f4 8b 32 3e 6b 4f 9b 3e 33 f6 a3 bc
       0.19553977 0.174362 0.3033403 -0.020014858
0002d0 b6 24 c4 be 3f 98 b4 3e 7a d9 fd 3c 0a 07 2d be
       -0.38309258 0.35272405 0.03098749 -0.16897216
0002e0 06 d4 8a 3e 55 ba 01 bf c4 6a 85 bd e8 13 e0 3d
       0.27114886 -0.50674945 -0.065145046 0.10941297
0002f0 f0 98 a5 be 5a 88 41 bc 7d 51 0b 3e eb 7a 14 be
       -0.32343245 -0.011812294 0.13605304 -0.14500014
000300 52 bb 88 be 46 3f 9d be 44 51 eb bb ab 0a c1 3e
       -0.26705414 -0.30712336 -0.0071813185 0.37703452
000310 27 02 b2 3e 1f 89 6a be 63 7d f3 bd 4b 30 c0 3e
       0.34767267 -0.2290387 -0.1188915 0.37536845
000320 7e 2a 8f be b0 80 3b 3d 02 51 8c be 7f ec ba 3e
       -0.27962106 0.045777023 -0.27405554 0.36508557
000330 46 9d e3 be 9b bb 40 bd f8 67 a7 be bf bd 9a be
       -0.44455928 -0.047053915 -0.3269651 -0.3022289
000340 f1 90 c5 be ad af d4 bd 51 6d cf 3e 7a 17 50 bd
       -0.38587144 -0.1038507 0.4051309 -0.05080364
000350 a9 d8 04 be 6e 72 df 3d 74 d9 f1 3d 42 a1 ae be
       -0.12973274 0.109104976 0.11809054 -0.34107405
000360 88 b4 bc be e4 fb f6 3e 3f 78 21 3e 18 62 e9 3d
       -0.36856484 0.48239052 0.15768526 0.11395663
000370 86 3d 44 bd 70 fe fa be 17 7a fd be 8e 56 a2 3d
       -0.047910236 -0.49022245 -0.4950721 0.07926665
000380 16 6a df bd ad be 82 3e 8b 0b b8 3e 38 6f fc be
       -0.10908906 0.255361 0.35946307 -0.49303603
000390 86 da 82 3e b0 89 ed 3e f5 90 3b 3e 78 4c 88 bd
       0.25557345 0.4639411 0.18317015 -0.0665521
0003a0 ac 74 81 3d 50 51 86 bd 96 dd 9b 3c 40 5e 34 be
       0.063210815 -0.06558478 0.019026559 -0.17614079
0003b0 3c ff 71 3d 27 c4 25 3d bb 06 98 3e e5 68 40 bd
       0.0590813 0.04047027 0.29692635 -0.046975035
0003c0 c3 3b 1e bd 9b 2f a8 be ea 9c 74 3e 91 33 ee 3e
       -0.038631212 -0.3284882 0.23887983 0.46523717
0003d0 42 58 b3 bd 6c 4c 93 3e f1 97 cc be 5f 26 c6 be
       -0.08757068 0.28769243 -0.39959672 -0.3870115
0003e0 96 7b 42 3e 6a 92 98 3e ec 4e 90 be 9c 7e 00 3f
       0.18992457 0.29799205 -0.28185213 0.5019319
0003f0 74 dd 11 3e b5 74 b7 3e cf d2 d0 be 36 46 b7 bc
       0.14244634 0.35831228 -0.40785834 -0.022372346

model.models.0.clayer_out.bias f4 [308]
000000 bf ee a8 be a6 48 f5 be 4a 37 a3 3e 07 a2 80 bd
       -0.3299465 -0.4790699 0.3187812 -0.06280904
000010 3a 05 6e be db 49 ab 3e 12 fa 1e 3e cf 83 ef 3e
       -0.23244181 0.33454785 0.15525082 0.4678025
000020 7f a2 9a 3e d3 fb d6 bd 00 6e b8 be 3c f7 61 3e
       0.302021 -0.104972504 -0.36021423 0.22066969
000030 c2 8c 8f 3e 86 b9 da 3e 9e 5e e8 be 93 f7 2f be
       0.28037077 0.42719668 -0.45384687 -0.17184286
000040 37 a4 8b 3e 14 4c a6 be 7f e4 b5 be ba ac d6 3e
       0.27273723 -0.32479918 -0.3552589 0.41928655
000050 0d f0 32 be aa 34 9c bd 19 e0 53 be d2 d1 fa be
       -0.17474385 -0.076272324 -0.20690955 -0.48988205
000060 bb 97 f6 be 80 b7 b3 3c 99 61 9f 3e f8 a5 17 bd
       -0.48162636 0.021938086 0.3112915 -0.037023515
000070 8d b0 8f be 9e 02 9e 3d 52 ed eb be dd 6e 7c bc
       -0.28064385 0.07715343 -0.460795 -0.015407291
000080 37 3a 47 be 2f e1 cd 3e 21 5d ea be e5 d9 dc 3e
       -0.19455801 0.40210864 -0.45774177 0.4313499
000090 d9 81 10 3d b8 3e 65 bd 3b ab 36 3e 92 41 96 be
       0.035280082 -0.055968016 0.17838757 -0.293469
0000a0 4b 9d 06 3e 7b 65 b7 bd 5d c0 81 3e ca 32 a0 3e
       0.1314594 -0.08954903 0.25342074 0.3128875
0000b0 b8 76 3c 3e 45 95 bb 3d 7e ab de 3e 4c cb 83 3e
       0.18404663 0.0915933 0.43490213 0.2574104
0000c0 c8 3c ae be 79 a5 9b 3e aa 37 b0 be 13 be db be
       -0.34030747 0.30399683 -0.34417468 -0.42918453
0000d0 ce 40 e0 be 42 89 49 3e c9 66 80 be 8b 56 d7 3e
       -0.43799442 0.19681266 -0.2507842 0.42058215
0000e0 2d 6e ce be a7 cc 39 bd ef 77 cb 3d 43 9a 89 bd
       -0.40318432 -0.045361187 0.09934985 -0.06718876
0000f0 2c 3e 07 3c 7a 85 6a 3e 15 28 98 3e fb 27 c9 3e
       0.008254569 0.2290248 0.2971808 0.39288315
000100 20 3b c7 be 9a 56 a3 3e b6 68 95 3e e5 1a 94 be
       -0.38912296 0.3190201 0.2918145 -0.2892677
000110 0e 4d da 3e 38 5a 56 bd 8c 05 57 bd bd 85 b6 3e
       0.42636913 -0.052332133 -0.052495524 0.3564891
000120 73 e5 71 3c 78 0b 47 3e ab 9a b1 be 06 e1 46 3e
       0.014764178 0.19437969 -0.34688315 0.19421777
000130 74 40 cb be 98 a8 97 be b9 31 85 3e 62 ca 51 be
       -0.3969761 -0.29620814 0.26014498 -0.20487359
000140 4e 6b 00 3e 35 68 24 3e c8 ad d2 3d 0b 94 ab bd
       0.12540933 0.16055377 0.102870524 -0.08377846
000150 6e 73 f0 be 44 ee 9f 3e 0d 0f f5 be e9 1f b5 3d
       -0.46963066 0.3123647 -0.47863045 0.08843977
000160 fa 43 9b bd ba 97 c6 bd a9 af b7 3e d0 d9 dc be
       -0.07581325 -0.09696908 0.35876206 -0.43134928
000170 e1 48 e3 be 6d b6 b3 be 77 b9 9b be 77 96 b6 bd
       -0.4439154 -0.35100117 -0.30414936 -0.08915418
000180 b9 9a a4 3e fd 19 f6 bd d7 09 63 be 7b 4c 21 be
       0.32149294 -0.120166756 -0.22171722 -0.15751831
000190 57 51 d9 be c1 1b 1d bc d9 61 2d 3d 01 49 b9 3e
       -0.4244487 -0.009589137 0.042329643 0.3618851
0001a0 16 22 31 3d de ba 94 be db 68 b1 3e 67 da 76 be
       0.043245398 -0.29048818 0.3465031 -0.24106751
0001b0 ec 11 30 be 93 91 10 be 95 20 b9 bd 4d dc 31 3e
       -0.17194337 -0.14118032 -0.09039418 0.17369194
0001c0 d3 23 36 3d 77 73 ae bb fa ef c4 3e 99 47 b0 be
       0.04446776 -0.005323823 0.38464338 -0.34429625
0001d0 c6 8c 48 3d 81 86 a5 be bb 1a 7e bd 7f 5a 9e be
       0.048962377 -0.3232918 -0.06203721 -0.30928418
0001e0 a8 48 60 3c 63 e4 34 3e 0b c3 4f 3e 40 e2 0b 3e
       0.013689198 0.17665248 0.20289247 0.13660526
0001f0 c0 06 df 3e cd 11 43 3e fa db 4b be 1d a5 e8 be
       0.43559837 0.19049759 -0.19908133 -0.4543847
000200 87 29 57 be 6c ff 86 3d 26 6a 11 3e 71 f4 9c 3d
       -0.21011935 0.065916866 0.14200649 0.07663811
000210 8f e9 e2 3c 8a 7c 39 3e eb 63 4d 3e 24 08 08 3d
       0.02769926 0.18113914 0.20057647 0.03321089
000220 6e 4f aa bd 8a 0e 82 3f 0f ac de 3d 7a 4c ee 3e
       -0.08315931 1.0160687 0.10872661 0.46542722
000230 00 1a 35 3f 22 fb f9 3d 8d 34 4b 3e 25 59 e9 bd
       0.707428 0.12206103 0.19844265 -0.11393956
000240 e2 82 c5 be f4 8b 9b be de 48 85 be 8f a6 a8 3c
       -0.38576418 -0.30380213 -0.26032156 0.020587234
000250 02 7b ba 3e ff 98 7e 3e 7a db a0 be bf 94 e7 bd
       0.36421973 0.24863051 -0.31417447 -0.11307668
000260 60 61 be 3e be 38 c4 3e c0 12 3f be 2a 73 4e 3e
       0.37183666 0.3832454 -0.18659496 0.20161119
000270 99 a1 1e 3e 97 d0 16 be ca 49 9a be 12 92 b7 3e
       0.15491332 -0.14728008 -0.30134422 0.3585363
000280 34 69 58 be 87 39 a1 bd 24 e3 a6 3d 42 d2 b8 be
       -0.21133882 -0.078723006 0.081487924 -0.36097914
000290 87 c9 2f bd be 28 f2 be 15 6e 29 be 42 4a 16 3e
       -0.0429168 -0.4729671 -0.16545899 0.14676765
0002a0 ea 5b e6 3e 61 e2 9b 3e 77 a3 af 3e 9c b9 bb be
       0.44992 0.3044615 0.343044 -0.36665046
0002b0 71 4c 09 be 54 73 33 3e a0 3c ce bd a5 f5 6c 3e
       -0.13408066 0.17524463 -0.10070157 0.23140581
0002c0 9e 61 a9 be af 44 6e be 9e f3 bd be 16 51 7e 3e
       -0.33082289 -0.23268388 -0.37099928 0.2483562
0002d0 22 2c 8b be 75 f3 67 be 39 b1 30 3e bb 07 b5 be
       -0.27182108 -0.22651465 0.17255105 -0.3535746
0002e0 82 a1 44 bd f4 8c e2 bd 80 ee ff bd b2 d1 27 be
       -0.04800559 -0.11062041 -0.12496662 -0.16388586
0002f0 c4 43 85 bd bd 67 7c 3d 62 f8 9c 3d 22 5f 19 be
       -0.06507066 0.06162237 0.07664563 -0.14977697
000300 d9 c3 87 3e 2b ec 6b be 68 f6 a4 be 6a 6a fb be
       0.26516607 -0.2303931 -0.32219243 -0.49104625
000310 92 b3 b7 3e 7a 60 0a be fa 8f 2d be 7a a5 b2 3e
       0.3587919 -0.13513365 -0.16949454 0.34891874
000320 b0 19 93 bd 95 78 c5 be 67 15 a2 3e 9a b5 d0 3d
       -0.07182634 -0.3856856 0.31656954 0.10190888
000330 19 3c ca 3e a0 01 0c be 48 d5 fc be 78 d5 1f bd
       0.39498976 -0.13672495 -0.4938147 -0.03902194
000340 88 6a b3 3e d6 a0 c5 3e 7d 58 dc 3c 1e de 95 3e
       0.35042214 0.3859927 0.026897663 0.29271024
000350 f0 1c d2 3e bb ae b1 bd 0f 85 e3 be 6d a2 9d 3d
       0.41037703 -0.08675905 -0.44437453 0.07696996
000360 fb d3 61 3e 15 2e a0 be 36 99 d2 3e 0b a7 fe be
       0.2205352 -0.31285158 0.41132516 -0.4973682
000370 a9 49 ce 3c 46 eb d5 3e ea 2c fa 3e 86 1b 9c 3e
       0.025181608 0.41781062 0.48862392 0.3048975
000380 7d 21 38 3d 53 ca da 3e 02 ed 24 be 4b bb 2d 3e
       0.044953812 0.42732486 -0.16106036 0.16965978
000390 91 08 41 3d 5f 53 70 3b d1 07 81 bd 86 74 31 bd
       0.04712731 0.0036670787 -0.06300319 -0.043324016
0003a0 c9 dd b4 3e d8 58 17 3e 89 7f 85 3d 25 29 d4 be
       0.3532546 0.14779985 0.06518466 -0.4143764
0003b0 96 25 86 3f 90 33 cc 3e b6 82 3a be 1f b5 e6 bd
       1.048022 0.3988309 -0.18213925 -0.11265015
0003c0 58 6f 05 be 95 e6 ba 3e 7a 51 67 3e b0 91 eb 3d
       -0.13030756 0.36504045 0.22589675 0.11502397
0003d0 2f d3 af 3e 6b 4f 83 3d a2 5c bb 3e 85 53 e4 bd
       0.34340808 0.06411632 0.3659411 -0.111487426
0003e0 3b 52 71 3e c1 ba ba bd b4 7c d9 bd 48 e3 82 3e
       0.23566525 -0.09117652 -0.10619488 0.25564027
0003f0 bf 9a b6 be 2d 28 e6 bd 2c 1a d0 3e 3a da dc be
       -0.35664937 -0.11238132 0.40644968 -0.43135244

model.models.1.clayer_in.weight f4 [4, 309]
000000 2e e8 d1 bc 4c 72 3b bd ee 9d 7c bd ca 91 69 bd
       -0.025623407 -0.0457633 -0.06167405 -0.0570238
000010 45 db b2 3d a7 47 d0 bc 65 9b 10 bc 34 06 e9 3b
       0.087332286 -0.025424791 -0.008826111 0.007111335
000020 0f d4 67 bc 92 5d 83 bd e7 ac d4 3b 3e b5 0d bd
       -0.01414968 -0.064143315 0.006490338 -0.034596674
000030 4b 55 49 3d 2e 20 67 3c 05 ad 7a 3d dc b3 a3 bc
       0.049153607 0.014106793 0.06120016 -0.019983225
000040 55 e6 e2 3b 1c 4a b9 bb e2 53 95 3d ce 69 e8 bb
       0.0069244304 -0.0056545865 0.0729139 -0.007092691
000050 db f9 27 3d 4c 8d f6 bb e4 4f 44 bd cc 70 8c bd
       0.041009765 -0.007524168 -0.047927752 -0.06857452
000060 70 ed 77 3c 8c 6c a4 bd 33 1c 88 bc 7c e5 7e bc
       0.015132293 -0.08028516 -0.016615009 -0.015557643
000070 4f 30 cd 3b 30 d3 45 3c 46 72 d7 3c 22 b8 a1 3c
       0.0062618623 0.012074277 0.026299607 0.019741122
000080 5b 43 03 3d d4 ab 08 bd 53 e4 a6 bc 5f 48 84 3c
       0.032046657 -0.033366993 -0.020372545 0.01614779
000090 37 0d 1c bc 5d 8c 4a 3d 8d 63 8d 3d 31 d8 39 bb
       -0.009524635 0.049450267 0.069037534 -0.002835762
0000a0 e5 5e 72 3d a8 ed 41 bd b3 cf 51 bd d4 af e8 3c
       0.05917253 -0.047345787 -0.051223468 0.028404154
0000b0 fc b7 53 3d b1 71 90 bd 0a 14 db 3c a7 3c 1f 3d
       0.051689133 -0.07052935 0.026742954 0.038876202
0000c0 a9 f7 ab 3a c6 31 eb 3c 8a 59 f8 bc f7 26 09 ba
       0.0013120073 0.028710257 -0.030316133 -0.00052319415
0000d0 8a 7e 6c bd 34 46 bf bc ee 38 93 3d 3e ed 10 3d
       -0.057737865 -0.023348905 0.07188593 0.0353825
0000e0 90 7a 26 bb 74 c0 9b 3b 34 f3 4e bc 68 c8 78 3d
       -0.0025402643 0.004753167 -0.012631226 0.060737997
0000f0 74 74 ca bc fd 3a 0e 3c c1 33 ca 3c 5d d2 94 bd
       -0.024713732 0.008681056 0.024682881 -0.07266686
000100 cf 90 09 bd f8 e1 87 3b 09 92 34 3c 81 40 2f bc
       -0.033585366 0.0041468106 0.011021146 -0.010696531
000110 c4 66 99 bb df f8 86 bd 3b 56 13 3d ac 12 82 3d
       -0.00468144 -0.06590437 0.035970908 0.06351218
000120 39 bf 62 3d bf 86 59 3d 43 74 f2 bb 74 5b 50 3d
       0.055358145 0.05310702 -0.0073991134 0.050868466
000130 fb d3 7e 3d b9 45 30 bd 94 f5 1f 3d f7 c5 3d 3b
       0.06221388 -0.043035243 0.03905256 0.0028957108
000140 13 83 89 3c 52 a6 39 3d 47 39 2d 3d d6 c1 3c 3d
       0.016786134 0.04532463 0.042290952 0.046083294
000150 db 18 65 3d 30 ac e6 3c 62 87 b3 bc 96 1d 14 bd
       0.055931907 0.028158277 -0.021915141 -0.036161028
000160 af 81 75 bc 8c 0b 3f bc 56 2b a4 3d 64 42 88 bc
       -0.014984532 -0.011660468 0.08016078 -0.01663322
000170 e9 c3 14 3c 01 19 ad 3c 23 7f 58 bd e5 ea 41 bd
       0.009079912 0.021130087 -0.052855622 -0.047343154
000180 5e 90 5f 3b 6b 23 3d bd b5 7f 45 3c 19 58 82 bb
       0.003411315 -0.046176355 0.0120543735 -0.003977787
000190 60 f3 b0 3b de e7 9b 3d 02 82 86 bc c8 42 4c 3c
       0.0054001063 0.076125845 -0.016419414 0.012467094
0001a0 e1 fd 93 3c 5a e4 0a bd 8f b5 2b bb 13 6d 56 bd
       0.018065395 -0.03390918 -0.0026200747 -0.052350115
0001b0 a8 ae 13 bc a8 4f be bc 6b d6 4d 3d 13 93 3e 3b
       -0.009013809 -0.023231342 0.050253313 0.0029079362
0001c0 60 d7 45 bd 43 d2 ba bd 7d d6 41 3c 9e d3 cc 3b
       -0.0483011 -0.091221355 0.011830923 0.0062508127
0001d0 a9 99 76 3d 28 18 f2 bc 61 e4 2a bd 8d c1 c1 3c
       0.060205135 -0.029552534 -0.041721705 0.023651863
0001e0 10 43 5b bd 03 97 1c bd 95 57 81 bd 5c 2e ba bb
       -0.053530753 -0.038229953 -0.06315533 -0.005681796
0001f0 86 a9 c3 3c 05 6e e1 3c cd 6b 8f 3a ff 56 24 bc
       0.023884546 0.027518282 0.0010942161 -0.010030507
000200 b7 bf 76 bc e9 4b 9b ba ba 7e 09 bc fe 0b 14 bd
       -0.015060357 -0.0011848185 -0.00839203 -0.03614425
000210 c2 fe 06 bd 69 b9 da bb fc 7c ed bb e7 22 10 bc
       -0.0329578 -0.0066749346 -0.0072475653 -0.008797384
000220 0b 48 0f 3d d0 61 5b bc 51 3d d9 bc dd b5 51 3c
       0.034980815 -0.01339002 -0.026518496 0.012799707
000230 37 e0 aa 3c 27 38 6a bb 39 f4 80 3d 6d 71 05 bd
       0.020858867 -0.0035739036 0.06296582 -0.032578874
000240 af cb 14 3c d8 83 8c 3c f1 f5 12 3d 4d 89 27 3d
       0.009081765 0.017152712 0.03587908 0.040902425
000250 e8 7b 16 3d 71 a1 1b 3d bc f8 91 3c ef 47 4f bd
       0.03673926 0.03799576 0.017818801 -0.05060571
000260 02 cf 4f bd 5a f1 37 3c e1 88 0b bd f7 ce 69 3d
       -0.050734527 0.011226976 -0.034066085 0.057082143
000270 95 5f b1 3b 6f 5c 2a bc eb b4 20 bd 3d 3b ff 3c
       0.0054130056 -0.010398014 -0.039235037 0.031156177
000280 a9 3c 8e 3d 28 4f fa bc df 21 d4 bc 3c 09 bb bd
       0.06945164 -0.030555323 -0.025895057 -0.09132621
000290 27 8b 61 bb 52 7d 11 3d c7 87 10 bc 1d 9e e1 3c
       -0.0034415217 0.035519905 -0.008821434 0.027541215
0002a0 2e 5b ae 3d 70 16 8b 3c c5 4a 00 bc 43 49 27 bd
       0.08513485 0.016978472 -0.007830326 -0.040841352
0002b0 55 0c fc 3b 60 90 23 3d b6 78 a8 bb cf 63 1c 3d
       0.0076919 0.03993261 -0.005141343 0.038181122
0002c0 ea 52 84 3c 62 9e c8 bc ed 64 a8 3c 4f a3 19 bc
       0.016152818 -0.024489585 0.020555938 -0.009377315
0002d0 64 c6 6c 3d 2e 10 62 3d 59 8e 6b 3d 4c ab 3a 3d
       0.057806388 0.05519121 0.0575088 0.045573518
0002e0 42 42 cf 3c b9 c8 35 bd cc 52 a2 3b 1b af 3f 3d
       0.025300149 -0.044380877 0.004953718 0.046797853
0002f0 e1 ee 00 bd ba 48 ae 3d 7f cd 2e bd 58 ce e1 bc
       -0.031477813 0.08509965 -0.042676445 -0.027564213
000300 57 97 35 bd c8 f7 06 bd 94 01 2e bd 43 f2 41 bd
       -0.044333782 -0.032951146 -0.042481974 -0.04735018
000310 96 ff 1e 3d 78 c8 75 bd 1c be 91 bd bd 39 a4 3c
       0.038817964 -0.060005635 -0.071163386 0.020047063
000320 d6 8b 02 3d 31 86 47 3c e5 c5 34 bd 61 26 5c 3d
       0.03187164 0.01217799 -0.04413404 0.05374754
000330 be 8e c1 3d 1e 7c 96 bc f5 92 dc 3c 87 5a 01 3c
       0.09451054 -0.01836973 0.026925543 0.007895119
000340 39 32 8f 3d 93 26 75 bc c1 1a 56 bc cc 79 3d 3d
       0.06992001 -0.01496281 -0.013067902 0.046258733
000350 20 9f 84 3d eb 06 b7 3b ff 2e 5b 3c bf 66 8c 3c
       0.06475663 0.0055855415 0.013377904 0.017138837
000360 54 d4 ef 3c 56 64 fa 3c b3 43 41 3d b5 35 df bc
       0.02927605 0.030565422 0.047183704 -0.02724729
000370 cf 24 7b bd b3 4a a6 bc 61 92 bc bc 2b 46 fb 3c
       -0.0613144 -0.020299291 -0.023019018 0.030673107
000380 bb 44 57 bd 55 fc 46 3d 3c 7b d2 bc 5c f5 34 bd
       -0.05255578 0.048580486 -0.025693528 -0.044179305
000390 01 a1 21 bd 79 b9 3c 3d 69 4a 84 bd 85 0d cc 3c
       -0.039460186 0.046075318 -0.06459505 0.02490879
0003a0 c2 be 87 bd 34 95 ab 3c e2 67 0f 3d 07 8c 1e 3d
       -0.06628181 0.020945169 0.03501118 0.03870776
0003b0 bd 32 26 3d ec 54 a2 bd bf 18 76 bc 97 32 88 3c
       0.04057573 -0.07926354 -0.015020548 0.016625686
0003c0 b2 fe 82 bd ff a0 c1 bc ea 73 69 3c 6a 09 8c 3c
       -0.063962355 -0.02363634 0.0142488275 0.017094333
0003d0 15 d4 6c 3d b5 a7 82 3d f7 4a 9d bc f4 bf 4c 3d
       0.057819445 0.06379644 -0.019200785 0.04998775
0003e0 9f 0f 49 bc 5a 05 64 bd 73 33 ff 3c 69 af 19 bc
       -0.012271791 -0.055669166 0.031152463 -0.0093802
0003f0 59 f0 97 bc d6 09 96 bc 28 72 01 bd fa 9c a7 3d
       -0.018547224 -0.018315237 -0.03160301 0.08184238

model.models.1.clayer_in.bias f4 [4]
000000 0b f6 95 bd 4a 67 18 bd 16 25 ca 3b 0b 6a 14 be
       -0.073223196 -0.03720788 0.006168972 -0.14493577

model.models.1.clayer_out.weight f4 [308, 4]
000000 a1 df 72 3e fc d6 db 3e 55 28 64 3e b6 83 a7 3e
       0.2371812 0.42937458 0.2228101 0.32717675
000010 c0 0b ec be 16 4d c9 bc 42 56 86 3e 0e 34 13 be
       -0.46102715 -0.02457289 0.26237684 -0.14375326
000020 cf 36 fe 3e 1b ea a5 3e 5e be 8d 3e 19 f2 49 3e
       0.4965119 0.3240517 0.276843 0.19721259
000030 0a 33 ea 3e e4 98 c1 be a2 84 c4 3e b8 5e 78 be
       0.45742065 -0.3781196 0.3838244 -0.24254882
000040 a4 57 eb 3e b6 88 cb 3e 4f da 61 be 71 cc f0 3e
       0.45965302 0.3975274 -0.22055934 0.47030976
000050 b8 8f 2d 3e d5 8d 00 3d 8c 32 ac 3b c8 0b 28 3d
       0.16949356 0.03138526 0.005255049 0.04102686
000060 b8 46 cf be 14 a2 28 3e e2 f6 f1 be 3a 06 c5 be
       -0.40483642 0.16468078 -0.4725867 -0.38481313
000070 b5 0a 35 be 19 04 09 be 8b d5 92 bc a6 b5 54 be
       -0.17679866 -0.1338047 -0.01792409 -0.20772418
000080 f9 7d 0e 3d 56 e8 bb be f9 e8 ea be b9 76 55 3e
       0.034788106 -0.36700696 -0.4588087 0.2084607
000090 69 c0 af bc da 5e b5 be cd d3 4f 3e be e4 0d bd
       -0.021454053 -0.35423928 0.2029564 -0.034641974
0000a0 e5 e7 00 3d a1 a6 ba 3e 14 32 9f be 68 1a 02 3d
       0.03147115 0.36455253 -0.31092894 0.031763464
0000b0 0d 42 38 3e bc e7 76 be 4b a5 41 be 49 60 24 3e
       0.17993946 -0.24111837 -0.1891071 0.16052355
0000c0 b5 af 90 be 44 07 c1 3e 7e c1 e8 bd 3a 7f d1 3e
       -0.28259054 0.37700856 -0.11365031 0.4091738
0000d0 a8 91 8f 3e 86 2e 71 be db 6a 90 3e c7 7d b4 3e
       0.28040814 -0.23552904 0.28206524 0.3525221
0000e0 2e b4 e8 3e c4 a0 2d 3e e2 56 07 be 72 c7 35 3e
       0.45449966 0.16955858 -0.13216737 0.17751864
0000f0 fe d3 14 bd 16 01 e3 3e c6 bb 85 be 6e d2 2c be
       -0.036334984 0.44336766 -0.26119822 -0.16877148
000100 29 35 43 be f7 34 1f 3e 5d 96 80 3d 45 e4 aa be
       -0.19063248 0.15547548 0.062786795 -0.3337728
000110 40 2a c9 3e 4c a2 83 be fc 33 17 3e 52 c6 a4 3e
       0.39290047 -0.2570976 0.14765924 0.32182556
000120 7d 87 94 be 87 be cf 3e 5c 49 79 be 77 7e 85 3e
       -0.2900962 0.40575048 -0.2434439 0.26073048
000130 2c e4 f3 3e fc 24 b6 3e 04 c7 c0 3e 6b ea cd 3e
       0.4763502 0.35575092 0.37651837 0.4021791
000140 48 da d1 be cc 61 60 be 70 92 d5 3e d5 7e bf 3e
       -0.40986848 -0.21912307 0.41713285 0.37401453
000150 a0 95 f2 3e 44 fa c9 3e 7a 0c a7 3e a3 29 a1 be
       0.4737978 0.3944875 0.32626706 -0.3147708
000160 e3 65 a0 3e a0 c3 64 be f8 5a f4 bd d0 7b f7 3e
       0.31327733 -0.2234025 -0.119314134 0.4833665
000170 f1 af ba be 93 d2 00 3f 93 bd 82 3e 97 69 eb be
       -0.36462358 0.5032131 0.2553526 -0.45978996
000180 4f c2 26 3e 79 43 7d bc 5d a9 d1 3e 94 0a bf 3e
       0.1628506 -0.015457981 0.40949526 0.37312758
000190 e8 81 a7 be 70 d1 d1 be 7f d7 1f 3e e5 03 a2 be
       -0.32716298 -0.409801 0.15609549 -0.31643596
0001a0 af 95 d9 be 89 6c c7 3e f9 46 e6 be a3 a2 b5 bd
       -0.42497012 0.38949993 -0.44976023 -0.08868911
0001b0 78 4a 8b be 31 a1 a4 bd 5d f3 32 3c 91 94 57 be
       -0.27205253 -0.08038557 0.01092228 -0.21052767
0001c0 e8 56 a5 be e5 3b aa 3d 63 ca 39 3d 95 1f 16 be
       -0.32292867 0.08312205 0.045359027 -0.14660485
0001d0 5e 8c 7b 3e c0 3d 50 bb 06 46 7f be e3 ad b0 3d
       0.24565265 -0.0031775087 -0.24929056 0.08626916
0001e0 ad 82 3a 3e f1 1b e2 be 7b 22 c0 be 79 65 d1 3e
       0.18213911 -0.44161943 -0.37526307 0.4089773
0001f0 c5 bf 25 3e a6 9f cd be fb fa 75 be 19 be 60 be
       0.16186436 -0.40160865 -0.24021523 -0.21947517
000200 4c 85 cc be b9 57 f1 be ae ab 99 3e 9a 30 d0 be
       -0.39945447 -0.4713724 0.30013794 -0.4066208
000210 cd dd a0 3e e6 3b d2 3c c1 b6 e7 bd 17 c8 7a be
       0.3141922 0.025663327 -0.113141544 -0.2449039
000220 a2 60 fb be 6a 05 9d 3c af 5a 77 3e 8f ee 70 3e
       -0.49097162 0.01916762 0.24155687 0.23528503
000230 aa b4 a5 be f8 90 d0 be 6b f3 33 3e ef 3b c2 3e
       -0.32364398 -0.40735602 0.17573325 0.3793635
000240 8b 23 0b be d9 07 05 be 64 5b a7 3e 65 dd 7d be
       -0.13587777 -0.12991275 0.32686913 -0.24791487
000250 4d 0d da be bc 6c e9 3e 26 3f 7a be a0 3c ed bd
       -0.42588273 0.4559077 -0.24438152 -0.11583829
000260 4b 81 bb 3d a0 61 d9 3e 2f a7 97 be 8e c5 b5 be
       0.0915552 0.42457294 -0.29619738 -0.35502285
000270 d2 8f ac 3d fb 18 ba 3c 67 73 61 3e 81 a7 c4 be
       0.08425869 0.02271699 0.22016679 -0.38409045
000280 5c d7 a6 be f3 c7 3e bd e2 2d c7 be 3c 80 fa 3e
       -0.3258618 -0.046577405 -0.38902193 0.4892596
000290 aa d1 cc be 12 6a 27 3e 9a e6 ee 3e 62 17 b8 3d
       -0.4000371 0.16349056 0.4666031 0.08988835
0002a0 69 c3 b4 be 03 5d 17 3d 42 bd 02 3e da c7 c4 bd
       -0.35305336 0.036953937 0.12767509 -0.09608431
0002b0 40 9c 90 3e 24 66 78 3d 10 25 f2 3e f3 4e 7a be
       0.2824421 0.060644284 0.472939 -0.24444179
0002c0 b0 4c 8f be b2 98 d6 be 8a d5 16 be a4 5e 8b 3e
       -0.27988195 -0.41913372 -0.14729896 0.27220643
0002d0 63 95 9a 3e 27 63 a2 be e9 a1 c7 3e 37 15 6b be
       0.30192098 -0.31716272 0.38990715 -0.22957312
0002e0 ee 56 97 be f2 df f5 3e a9 40 48 be d1 76 e9 3e
       -0.2955851 0.4802242 -0.19555916 0.45598462
0002f0 90 00 a7 be 63 f3 a2 3e 26 95 c7 be 99 88 a1 bd
       -0.32617617 0.31826314 -0.3898098 -0.07887382
000300 71 bc 7c bd 93 36 f4 3e 21 5a a3 3e 51 cc d3 be
       -0.06170315 0.47697887 0.319047 -0.4136682
000310 73 c0 08 be 15 0b b6 3d 35 b8 0e be 1b 70 42 3e
       -0.13354664 0.088888325 -0.13937457 0.18988077
000320 58 62 e7 3a e2 fb f3 be e6 bc c8 3e 5e f9 8b 3d
       0.001765321 -0.4765311 0.39206618 0.068346724
000330 cf a0 e0 3e ea 46 a4 be 2a 8d 8d be b6 00 b7 be
       0.43872687 -0.32085353 -0.27646762 -0.3574273
000340 62 73 8c 3e 22 68 a9 be 8c 78 8b bd 7b f9 8e 3e
       0.2743178 -0.3308726 -0.06810102 0.27924713
000350 84 8b ce 3e 7a d7 ec be 24 81 f5 be b7 8e ae be
       0.40340817 -0.46258146 -0.4795009 -0.34093258
000360 05 82 98 be 97 77 cf 3e 6f 97 04 bf 3c fd 2b be
       -0.29786697 0.40520927 -0.5179357 -0.1679582
000370 76 69 ce 3e 0c a2 dc be 6a 34 88 be 7f a4 ec 3e
       0.40314835 -0.43092382 -0.2660249 0.4621925
000380 e1 03 a4 be 80 b3 db be 3f 02 dd 3e 03 eb ab 3e
       -0.3203421 -0.42910385 0.43165776 0.33577737
000390 cc b6 a7 3e 26 47 ed bd 6c 15 70 be d5 39 2b 3e
       0.3275665 -0.11585836 -0.23445672 0.1672128
0003a0 49 b0 27 be 52 26 90 be ae 8f eb be 51 3e c3 3d
       -0.16375841 -0.28154236 -0.46008056 0.0953337
0003b0 71 d4 63 3e 8f 03 e3 3d 9b d5 ad be dc 32 10 3e
       0.22249009 0.11084663 -0.3395203 0.14081901
0003c0 75 16 68 be 06 21 cd bb 12 33 27 3e 8a fa b2 3e
       -0.22664817 -0.00626004 0.16328076 0.3495677
0003d0 de 06 ec be 7b 80 5a 3e 38 fc 89 be a9 ca c7 3e
       -0.4609899 0.21338074 -0.2695024 0.39021805
0003e0 7c 6d 26 be fd b2 ef 3e a9 2f a6 3d 6f 71 55 bc
       -0.16252702 0.46816245 0.08114559 -0.013027533
0003f0 fa 45 94 3e b4 da dc 3e ba 9e dd 3e d0 be df 3d
       0.28959638 0.43135607 0.4328516 0.109250665

model.models.1.clayer_out.bias f4 [308]
000000 b4 67 fb 3d 14 99 86 3e 87 4e a4 3e e3 bc 39 3e
       0.12275639 0.26288664 0.32091162 0.18138461
000010 c5 3d 75 be d6 a7 96 3e 74 d7 9a 3e bd 59 c4 be
       -0.23949344 0.29424924 0.30242503 -0.38349715
000020 3a f3 19 be a5 ac 3e be db 9c b1 3d b5 24 33 3d
       -0.1503419 -0.18620546 0.08672496 0.04373618
000030 34 ea d4 be c0 68 1a 3d 9e 31 04 3d 10 14 95 be
       -0.41584933 0.037697554 0.03227388 -0.2911687
000040 56 3d d4 bc 82 42 a2 3e d7 b5 eb be 56 9a b8 3e
       -0.025908154 0.31691366 -0.4603717 0.3605525
000050 26 bb 39 be 01 5b 6c 3e c6 b4 d2 3e d2 e4 cd 3e
       -0.18137798 0.2308159 0.41153544 0.4021364
000060 1e 18 50 3d 01 61 b7 3e a2 ee 2a 3d a3 28 85 be
       0.05080425 0.35816196 0.041731484 -0.26007566
000070 46 d8 b9 be b9 b4 75 be 55 d2 b2 be 7e 75 8e 3e
       -0.36297816 -0.23994721 -0.34926096 0.27824014
000080 9b 33 77 be 56 eb d0 bd e0 40 e9 3c 6d 1b ab be
       -0.2414078 -0.10201137 0.028473318 -0.33419362
000090 1c a1 5c 3e b6 77 ec be f7 7f 87 bd 48 48 b7 bd
       0.21545833 -0.46185082 -0.06616204 -0.089493334
0000a0 93 8b 20 be 2a 63 08 be 13 22 ac be 74 ab 2c be
       -0.15678243 -0.13319078 -0.33619747 -0.16862279
0000b0 cf a8 e5 be f1 99 82 3e c0 f8 e7 be f6 55 9e 3e
       -0.44855353 0.25508073 -0.4530697 0.30924958
0000c0 5d 28 88 3e 3d 83 6c 3e 6b 0a a8 be 42 71 81 3c
       0.26593295 0.23096938 -0.32820448 0.015801076
0000d0 89 43 da bd a6 aa a1 3e ea 7a 2b 3e 7e 40 4e bd
       -0.106574126 0.31575507 0.16746107 -0.050354473
0000e0 ec 42 31 3e 8e ce d8 3e c4 44 00 bf 27 c8 d6 be
       0.17310685 0.4234509 -0.5010493 -0.4194958
0000f0 a8 9c 8d 3e 33 10 85 3e 4a 75 26 3e ea 9a d7 3e
       0.27658582 0.25988922 0.1625568 0.42110378
000100 81 33 00 be 54 1d 1f 3d 87 91 f4 be 2b 82 fa be
       -0.12519647 0.03884633 -0.4776728 -0.48927435
000110 38 8e bd 3e a0 91 77 3e 95 75 57 be 9f 15 7c be
       0.37022567 0.24176645 -0.21040948 -0.24617623
000120 8e 86 ed be 73 7f 61 be 05 96 a7 be 8c c3 d3 be
       -0.4639172 -0.22021274 -0.32731643 -0.41360128
000130 cc 1f 00 be ed 07 2e be 7f 93 90 be e2 6d e7 3e
       -0.1251213 -0.16995211 -0.2823753 0.4520102
000140 47 8f 30 be 23 fe c7 be ca 70 f7 bd ab 03 01 be
       -0.17242156 -0.39061078 -0.1208206 -0.12599055
000150 32 22 6d be 6e ad 07 3e c0 1b d2 3e 90 31 2a 3e
       -0.23157576 0.13249752 0.41036797 0.16620469
000160 87 d5 af 3d 6d b1 b5 3e 2a e2 95 3e b5 e1 63 be
       0.08585649 0.35486928 0.29274112 -0.22254069
000170 6e 3f 87 3e c5 a5 04 3f 9f d1 c7 be 0f 76 7b be
       0.2641558 0.51815444 -0.39027116 -0.24556755
000180 da c2 f5 be aa 27 c5 be 88 2f 1a be e6 ac f4 bd
       -0.48000222 -0.38506824 -0.15057194 -0.1194704
000190 52 de dd bd dc 86 3f be c4 8b b5 be 60 61 97 be
       -0.1083342 -0.18703789 -0.35458195 -0.2956648
0001a0 bb 8f ad be 19 d3 bd be 0c ca 16 be 32 8b 6f 3e
       -0.3389872 -0.37075117 -0.14725512 0.23392943
0001b0 03 6f 76 be ab 96 f6 bd 29 7f f3 bc 46 de c6 be
       -0.24065785 -0.120404564 -0.02972372 -0.38841456
0001c0 75 03 bc 3e e8 e1 e0 3e 29 dc 9b 3e d5 ad 87 3c
       0.36721388 0.43922353 0.30441406 0.016562382
0001d0 90 df eb be de 65 08 3d af bc 22 3d 9d ad f4 3d
       -0.46069002 0.033300273 0.039730724 0.119471766
0001e0 ec f0 92 3e db 9c d4 3e ef 9c 2e 3c f3 4d ba be
       0.28699434 0.4152592 0.010657533 -0.36387596
0001f0 4b 96 51 be 67 1e 38 3e 16 47 8b 3e 87 49 c3 3e
       -0.20467488 0.17980348 0.27202672 0.38142034
000200 06 37 11 ba 2b 2a d9 bd 1a 68 33 bd 46 0a 85 3e
       -0.000553951 -0.10603746 -0.04380045 0.259844
000210 a7 ea a0 3e f2 49 ef be fe b7 3a be b1 51 26 3e
       0.31429026 -0.46736103 -0.1823425 0.162421
000220 5f 71 85 3c 74 8b 92 3f 8b b4 f3 be 4f 28 9a 3e
       0.016289411 1.1448808 -0.4759868 0.30108878
000230 7b fd 27 3e c4 15 d9 3e 7f 51 56 bd 41 44 90 3e
       0.16405289 0.42399418 -0.052323814 0.28177074
000240 49 7d 67 be 4c 51 ad 3e 37 e5 38 3e dc 70 ef be
       -0.22606386 0.33851087 0.18056189 -0.46765792
000250 29 14 da be ce 02 cb bc 6b 33 aa 3e 0f 9e b5 bd
       -0.42593506 -0.02478161 0.33242354 -0.08868038
000260 bd 83 cb 3e cc 1c 12 be d0 ed 65 be 3b 05 90 be
       0.39748946 -0.14268798 -0.22454 -0.2812899
000270 74 0e 62 be 2a e3 00 bf 18 db 60 be c0 df 9f 3d
       -0.22075826 -0.50346625 -0.21958578 0.07806349
000280 60 a0 90 be 39 f8 87 bc 24 f4 aa be 90 34 99 3e
       -0.28247356 -0.016597854 -0.3338939 0.29922915
000290 a3 09 ae 3e 6d 91 16 be 12 31 c5 3e bb 0d ee be
       0.33991727 -0.14703913 0.38514 -0.4649485
0002a0 dc 47 47 be 96 b2 d3 3e 22 58 8e 3e c6 d2 98 be
       -0.19461006 0.41347188 0.27801615 -0.29848307
0002b0 69 28 a6 3d 64 9d 53 be 1f e0 4d 3e 8e 51 b3 be
       0.081131764 -0.20665509 0.20105027 -0.3502316
0002c0 7a f6 3c be 0a 7e 1b be bc 09 46 bd cc a5 89 3e
       -0.18453398 -0.15184799 -0.048349127 0.26884305
0002d0 46 50 1a bd 29 29 ff be 61 a2 ef be c3 d2 8a be
       -0.03767421 -0.4983609 -0.46803573 -0.27113923
0002e0 ce c4 5f 3e cd 7f c0 3c 5f 62 3d bd 3c 2f 7e 3d
       0.21852419 0.02349844 -0.046236392 0.062056765
0002f0 85 7a b8 be dc de ac 3e 58 ea a8 3e 44 57 ce 3e
       -0.36030975 0.33763778 0.3299129 0.40300953
000300 28 83 ab 3d 4e 7e 59 3e 77 52 ac 3e 24 26 d6 3e
       0.083746254 0.21239588 0.33656666 0.41825974
000310 e1 6d 7f be 17 15 32 3e 4f a4 22 3e 65 b6 0e 3e
       -0.24944259 0.17390858 0.15882991 0.13936765
000320 26 26 11 3e 18 e9 e2 3d 86 8a bc 3e c2 39 9c be
       0.14174709 0.11079615 0.36824435 -0.30512816
000330 2a e0 55 3e 3d f4 cc 3e ae 29 c4 bd 4f 87 1c bd
       0.20886293 0.4003009 -0.09578262 -0.038214978
000340 61 65 07 be a2 52 87 bd c2 32 95 be b6 36 28 3e
       -0.13222267 -0.06607558 -0.29140288 0.1642712
000350 7a f1 e4 be 85 04 77 3e cb 49 f5 be b7 c1 57 3d
       -0.44715482 0.24122818 -0.47907862 0.052674975
000360 48 91 87 3e a1 2e 17 be 8d 8a da be b0 bd bc bd
       0.26478028 -0.14763881 -0.4268383 -0.092158675
000370 85 89 83 bd 40 4b 6e 3e 8e 9f cd be 3a bf 57 bd
       -0.06422714 0.23270893 -0.40160793 -0.052672602
000380 c2 24 cf be 77 80 c1 bd ad 68 cd 3e c6 f2 ef be
       -0.4045773 -0.09448331 0.40118924 -0.4686491
000390 6d e2 be 3e 85 90 b6 be 13 77 51 be 5f c6 bc 3d
       0.37282124 -0.35657135 -0.2045558 0.09217524
0003a0 5a 84 4d 3e 92 ac 12 3d 54 c5 28 bd a5 80 0a bd
       0.2007002 0.035809107 -0.04120381 -0.03381409
0003b0 90 d8 a8 be 12 72 af 3e 71 33 0d bc 5d 95 8b bd
       -0.32977724 0.34266716 -0.008618222 -0.06815598
0003c0 d3 9e df 3e fe 52 20 3e 1a 2b 20 3e b3 fe 3a 3e
       0.4367586 0.15656659 0.15641442 0.18261223
0003d0 e7 25 94 be e3 19 cb 3d e5 7d b8 3d f1 c3 d6 bd
       -0.28935167 0.09917047 0.090083875 -0.104865916
0003e0 db e3 e2 be cb 00 c3 3e 8f d7 6d 3e ee c1 b6 3d
       -0.44314465 0.38086542 0.2322676 0.08923708
0003f0 e5 c6 8e 3e 12 94 f9 3d fa a2 e8 3c da 8c 9c bc
       0.2788612 0.12186445 0.028398026 -0.019110132

model.models.2.clayer_in.weight f4 [4, 309]
000000 5c 3d a1 bd 1a 32 15 3d 14 76 8d bb 72 50 80 3d
       -0.078730315 0.036424734 -0.0043170545 0.06265344
000010 92 2d 23 bc 91 37 55 3c 7f 0e 43 bc 58 24 5b bc
       -0.009959595 0.013013736 -0.011905312 -0.013375364
000020 9f 0e 32 bd 05 b3 53 3d 24 a0 13 3d e4 23 e5 3c
       -0.043470975 0.0516844 0.036041394 0.027971216
000030 97 20 6c 3d 1c c6 a8 bc 01 e7 7b bd 73 7d f8 bc
       0.057648268 -0.020602278 -0.0614996 -0.030333256
000040 c7 ae 25 bd 19 da 09 3d 2a 1a 67 bd c7 01 04 3d
       -0.040449884 0.03365526 -0.056421436 0.032228258
000050 6a a6 de 3c ff 94 44 bd 3f f4 6a 3d 30 bb f0 3c
       0.027178962 -0.047993656 0.057361837 0.029386133
000060 6f 44 31 bc 0d 4a 80 bc 5e b6 97 3d 3c c7 0d bc
       -0.0108195385 -0.01566031 0.07407831 -0.008653458
000070 42 2a d4 bc cf 86 bb bc b2 cc 65 3d 69 bb 6e 3c
       -0.025899056 -0.02289143 0.056103416 0.014571049
000080 82 9a 49 bd 4e f4 6b bc e1 ca 4e 3d d2 7d e8 3c
       -0.049219616 -0.0144015085 0.05048645 0.028380308
000090 8e 62 97 bc c8 17 8d 3b 1d 23 98 bc 97 45 08 3d
       -0.018479612 0.0043058135 -0.01857143 0.03326949
0000a0 34 70 47 3d 2d d0 2f bd 64 da 32 bd 08 f2 13 3d
       0.04869099 -0.04292314 -0.043665305 0.03611949
0000b0 45 aa 0b bd f0 df 21 3d ac 7b 01 bd 51 af ba 3c
       -0.03409793 0.039520204 -0.031612083 0.022788676
0000c0 04 2b 56 bd 43 65 68 bd ce 7c 0c bb 6a 0c 6b bb
       -0.052287117 -0.056737196 -0.0021436694 -0.0035865554
0000d0 d3 69 5a 3d 33 12 db 3c 3f a6 8f 3a 2b 8c e0 3c
       0.053323578 0.026742077 0.0010959579 0.027410587
0000e0 ae 73 84 3c 5d 85 53 bd d9 0d 1e bd 48 c0 eb 3b
       0.016168442 -0.051640857 -0.038587425 0.0071945526
0000f0 07 a2 60 3c 42 ac 7b bd 0b 52 e0 3c 0c 06 ca 3c
       0.013710505 -0.061443575 0.027382871 0.024661086
000100 70 ef 0a 3d db 99 d4 3c dd cf a5 3c 72 e6 51 3c
       0.03391975 0.02595227 0.020240718 0.01281129
000110 90 8b bd bd 5f 93 82 ba 5a 48 6f bd e4 2b 4d 3d
       -0.09255135 -0.0009962133 -0.05841861 0.050090685
000120 04 93 31 bc 83 2d 8c bc 49 8a 61 3c 11 85 eb 3c
       -0.010838274 -0.017111545 0.01376588 0.028749974
000130 c3 80 5d bd 4b b1 27 3d a3 d3 f2 3c f2 fb 96 3c
       -0.054077875 0.040940564 0.029641932 0.018430684
000140 37 50 02 bd eb 8a 50 bd 93 4a 93 3c a2 f5 c9 bc
       -0.03181478 -0.050913732 0.017979896 -0.02465326
000150 d9 3b 0d 3d 5b a2 e2 3c 95 c9 84 bc a7 8a 70 3c
       0.034480903 0.027665308 -0.016209403 0.014681495
000160 c2 41 88 bc 15 0d 54 3d 04 81 5a 3d dc 61 2e bd
       -0.016632918 0.05177029 0.053345695 -0.042573795
000170 af b7 a8 3c 04 db b5 3c b2 c9 3f 3d 02 fa 01 bc
       0.0205954 0.022199161 0.04682321 -0.007933142
000180 02 38 bf 3c ff 82 14 bd e3 b1 94 bd fb 38 52 bc
       0.023342136 -0.03625774 -0.07260492 -0.012830968
000190 a3 48 27 3d 37 44 06 3d fa 0c a4 bc 35 e6 46 3d
       0.040840756 0.0327799 -0.020025719 0.048559386
0001a0 0c cb 22 3d 5a 3c ea 3b f6 6f d2 3c 07 f1 83 bc
       0.03974442 0.0071483077 0.025688153 -0.016106142
0001b0 2d 08 7a bc 4e e7 de bc b8 c3 cb 3c e5 e1 cb bc
       -0.015260738 -0.027209904 0.0248736 -0.024887988
0001c0 88 5c 7a 3c a2 ca 03 3d d3 39 e3 ba a2 82 e3 bc
       0.01528085 0.032175668 -0.0017335959 -0.027772252
0001d0 fa 80 7f 3c ed 95 3a 3c 81 7a 57 3d 1e 6d e5 3a
       0.015594715 0.011388284 0.052607063 0.0017503833
0001e0 fb 96 3c bd b5 7f 31 bd ad 41 94 bd 9a 76 46 bd
       -0.046042424 -0.04333468 -0.07239089 -0.04845295
0001f0 46 63 01 bc 72 aa 0c 3d d0 c3 52 3d 20 27 11 3b
       -0.007897204 0.034342237 0.051456273 0.0022148564
000200 9e 0b 47 3c b3 ce 7d 3d a1 47 7c bd da 43 2e bc
       0.012148766 0.0619647 -0.06159175 -0.010636294
000210 fb f3 d1 3c e7 50 51 3b f8 f8 af 3c d0 27 5a 3c
       0.025629034 0.003193909 0.021481022 0.013315156
000220 1a c0 5b bb b1 10 f0 3b 1e a3 f6 3c dd cf 60 3d
       -0.003353125 0.0073262085 0.030107077 0.054885734
000230 7c c4 45 bd 8c 64 23 3d a2 ae 67 bc 96 30 98 bc
       -0.048283085 0.03989081 -0.014140757 -0.018577855
000240 f5 cd 19 3d c7 08 05 bc cb 48 a6 bc b5 50 df bb
       0.03754993 -0.008119768 -0.020298382 -0.006815041
000250 b3 23 b2 bc fe 27 16 3d 1e e4 6a 3d 7f 37 fe bc
       -0.021745538 0.036659233 0.057346456 -0.031032322
000260 c5 2c 43 bd 0f a8 22 bd 6c 9d 95 3c ed 65 0a 3d
       -0.047650117 -0.039711054 0.018263541 0.03378861
000270 00 c4 27 3d dc 5a 15 3d 2f cc 50 3d 1f 64 c2 bc
       0.040958405 0.036463603 0.050975975 -0.023729382
000280 3e a8 07 3d 9d 93 99 3d 01 46 43 bd 2d 19 13 bd
       0.033119433 0.07498858 -0.047674183 -0.03591268
000290 35 f2 20 3c f5 38 ce ba 2a 66 a9 3b 6c c5 24 bd
       0.009823372 -0.0015733527 0.0051696496 -0.04022734
0002a0 66 98 26 bb 7f 61 d1 3c 55 47 9f bb 51 6f 95 bd
       -0.0025420426 0.025559185 -0.0048607984 -0.072966225
0002b0 7b 44 07 bd 10 e4 93 3c b2 f5 47 3d 3a 2f e9 3c
       -0.033024292 0.018053085 0.048818298 0.028464902
0002c0 38 5c 23 3d ba 01 5a 3d d2 d5 a1 3c 03 73 0f bc
       0.03988287 0.053224303 0.019755278 -0.008755448
0002d0 a6 2d 86 3c d9 21 4d bb 3b b3 66 bb 3f fe e0 3c
       0.016379189 -0.0031300692 -0.0035202045 0.027464984
0002e0 f3 4f e7 3c ed e5 48 bd 14 b8 9a 3c 07 95 5e 3d
       0.028236365 -0.0490474 0.018886603 0.054341342
0002f0 19 ec 2c 3d 07 b0 87 3d e3 48 9e bd 23 61 73 bd
       0.042217348 0.066253714 -0.07728746 -0.05941881
000300 27 22 3e bd 3c 9b 2d 3d dc 90 1b 3d f1 82 47 3d
       -0.04641929 0.04238437 0.037979946 0.04870886
000310 17 29 4d bd 06 10 67 3d f9 b4 fc bc 33 ea 22 3c
       -0.050088014 0.056411766 -0.030848013 0.009943533
000320 04 8f 5e bc cc de ca 3c 37 79 d3 ba 88 8b bf 3c
       -0.013583902 0.024764441 -0.0016134147 0.023381963
000330 75 56 49 bd 39 08 1a 3d d2 10 a9 bc 04 36 28 bd
       -0.049154717 0.037605498 -0.020637903 -0.04106714
000340 7e fe 41 bd 47 06 64 bd a3 9d 0a 3d ab bb 90 bc
       -0.047361843 -0.05567005 0.03384174 -0.017667612
000350 16 e6 03 3d f2 2c ea 3c b2 50 3e bd aa ab 03 3d
       0.03220185 0.028585885 -0.046463676 0.032146133
000360 e2 cc 0f ba 6a 14 7a bc 0e 4a b0 3c 8c 6c a3 bd
       -0.0005485547 -0.015263656 0.021519687 -0.07979688
000370 01 40 f5 bb 0d 32 80 3d c5 75 97 3d 73 60 bc 3c
       -0.0074844365 0.062595464 0.0739551 0.02299521
000380 cf b7 53 bc 74 3f 3b 3d 6b 64 a0 3c a9 d8 14 bd
       -0.012922241 0.04571481 0.019579133 -0.036339436
000390 e5 ab 59 3c ab 1d 03 3d bf 5d 05 bd e8 cc 75 3b
       0.013285612 0.032010715 -0.032560106 0.0037506167
0003a0 fd 35 ff 3c f0 b2 09 3d e8 70 ce 3c f8 7f 08 bd
       0.031153673 0.033617914 0.025200322 -0.033325166
0003b0 78 cb eb 3c b1 d2 24 ba 97 b8 49 3d c8 7c 10 3d
       0.028783545 -0.0006287499 0.049248304 0.03527525
0003c0 df b9 10 3d 47 76 e0 3c 05 db b9 3c cc 80 1a 3d
       0.03533351 0.027400149 0.022687444 0.037720487
0003d0 03 8e de bc 78 25 44 bc 6e 79 bf bc 6b d8 e5 39
       -0.027167326 -0.011971824 -0.023373332 0.00043839528
0003e0 30 9c 31 3d c2 49 42 bd 72 50 43 bd 24 52 25 bc
       0.043361843 -0.047433622 -0.04768414 -0.010090385
0003f0 46 ce e5 bc e6 87 70 bc 23 a2 a4 bc 5e 7a 37 3d
       -0.02805246 -0.014680838 -0.020096844 0.044794433

model.models.2.clayer_in.bias f4 [4]
000000 c6 32 6a 3d 22 86 8c 3d fc a4 eb bb 07 92 2a bd
       0.057177328 0.06861521 -0.0071912985 -0.04164317
