saved_models/lstm50-seq58-cut10000-epcs3-qu6-nq2.pt (torch, 76209 bytes, 200 tensors)

model.models.0.VQC_forget.weights f4 [2, 6]
000000 81 45 be 40 94 b4 7b 40 b1 c4 c7 40 0c c0 4f 40
       5.9459844 3.9328966 6.24276 3.2460966
000010 78 ea 9d 3f 24 4e 3f 3f 86 64 24 40 7b db 75 3f
       1.2337179 0.7472861 2.5686355 0.96038026
000020 df 1f 55 40 0f d8 0d 40 bf 95 b5 40 4c 1c a5 40
       3.3300703 2.2163122 5.6745296 5.159704

model.models.0.VQC_input.weights f4 [2, 6]
000000 47 05 98 3f 74 21 bd 40 12 7b 0e 3f 75 fd 8d 40
       1.187661 5.9103336 0.5565654 4.4371896
000010 5f 13 8a 40 17 61 81 3f 9a 9a b9 3f 40 b7 c7 40
       4.3148646 1.0107754 1.4500306 6.2411194
000020 c3 ea 24 3f 82 b8 d9 3f 31 00 dc 3f 2d 8e b2 3d
       0.6442072 1.7009432 1.7187558 0.08718524

model.models.0.VQC_update.weights f4 [2, 6]
000000 4e 36 73 40 53 3b 18 40 5a f9 6a 40 ba ac b9 3f
       3.8001895 2.3786209 3.6714692 1.4505837
000010 70 20 0d 3f 10 4b 2d 40 75 a9 f5 3f ef 94 c1 40
       0.5512762 2.7077065 1.9192339 6.0494304
000020 51 83 89 40 4a b3 b4 40 55 2f 10 3f fb 09 8a 40
       4.29728 5.646886 0.5632222 4.3137183

model.models.0.VQC_output.weights f4 [2, 6]
000000 6e 50 4b 40 1d b4 8f 3f e0 c0 d9 3f 9d 21 b5 3f
       3.176784 1.1226841 1.7011986 1.4150883
000010 5d c3 79 3f 05 26 c5 40 70 85 8d 3f 42 f8 a0 40
       0.97563726 6.160891 1.1056347 5.030305
000020 17 ca 3b 40 7c 6e 74 40 ac e6 2a 40 ec 63 a2 40
       2.9342096 3.8192434 2.670329 5.0746975

model.models.1.VQC_forget.weights f4 [2, 6]
000000 06 59 52 40 f7 f5 9d 40 79 df 65 40 aa 10 9b 3f
       3.2866836 4.936275 3.5917647 1.211446
000010 93 9e 8d 40 77 ce 17 40 76 c9 8a 3f ca 04 8b 40
       4.425607 2.3719766 1.0842731 4.3443346
000020 47 48 a7 40 a3 85 81 40 c5 7e 5e 40 95 0e 86 40
       5.227573 4.047563 3.4764874 4.18928

model.models.1.VQC_input.weights f4 [2, 6]
000000 1d d4 4d 40 51 34 74 40 a1 99 9b 3d 11 55 fd 3f
       3.2160714 3.8156931 0.07597662 1.9791585
000010 a2 4e d7 3f 2c 7b 28 40 b8 fb ab 40 ee 71 97 40
       1.6820872 2.6325178 5.3744774 4.7326574
000020 2a d7 6f 3f a5 37 be 40 e8 51 f7 3f cb e0 97 3f
       0.9368769 5.9442925 1.9321871 1.1865476

model.models.1.VQC_update.weights f4 [2, 6]
000000 19 f2 9e 40 c3 91 64 40 5f 35 b1 40 db a5 97 40
       4.967053 3.5713966 5.537765 4.738996
000010 61 57 ba 40 03 0e 9d 40 e0 a9 a2 40 3b 31 5e 40
       5.8231664 4.9079604 5.0832367 3.4717548
000020 3e 3f 43 40 ed b9 56 40 4c e6 69 40 d2 a7 e7 3f
       3.050735 3.355098 3.6546812 1.809809

model.models.1.VQC_output.weights f4 [2, 6]
000000 80 f3 c1 3f e6 d3 7f 3e 6b 08 98 40 c6 5a c0 3f
       1.5152435 0.24983177 4.7510276 1.5027702
000010 3c ba 0b 40 e6 a7 b0 40 10 ca 3f 3f 97 ef d8 3f
       2.1832418 5.5204954 0.749177 1.6948117
000020 71 a7 5f 40 a4 f1 f5 3e 07 d5 bb 40 0e 3d 4a 3f
       3.4945948 0.4803592 5.8697543 0.7899941

model.models.2.VQC_forget.weights f4 [2, 6]
000000 d4 2d 6d 40 ad 10 7a 3f bd ed d4 3f 34 27 4d 40
       3.7059221 0.97681695 1.6635052 3.2055178
000010 75 f9 37 40 37 b5 90 40 b2 75 86 40 6d cb b1 40
       2.8746006 4.522121 4.201867 5.5560822
000020 19 58 a9 40 c7 c7 00 3f 5a 5d a0 3e 98 16 7a 3f
       5.292004 0.50304836 0.31321222 0.97690725

model.models.2.VQC_input.weights f4 [2, 6]
000000 1d 49 71 3e 69 b5 3b 3d 27 1c b3 40 d7 b3 54 40
       0.23563047 0.045827303 5.5971866 3.3234766
000010 a0 31 b0 3f 3a 81 85 40 a9 fe b7 40 73 46 e1 3f
       1.3765144 4.1720247 5.7498364 1.7599624
000020 03 10 d0 3f 78 b5 c7 40 87 55 a1 3f 75 2f 95 40
       1.6254886 6.240902 1.2604226 4.662043

model.models.2.VQC_update.weights f4 [2, 6]
000000 4e ab 6d 40 93 6c b1 40 3e c9 bb 40 3a ac ad 40
       3.7135806 5.5445037 5.8683157 5.4272738
000010 1b 11 c9 3f d8 7d e0 3f 20 92 91 40 b5 ec 50 3f
       1.5708345 1.7538404 4.5490875 0.81611186
000020 7b bc e0 3e 02 f7 49 40 4c d3 bd 3f 74 8d 33 40
       0.438938 3.1557012 1.4830108 2.8055086

model.models.2.VQC_output.weights f4 [2, 6]
000000 5e d8 c6 3f 6a 1e c7 40 ff e0 eb 3e 73 87 c7 3f
       1.553478 6.2224627 0.46070096 1.5588211
000010 2f b0 9b 3f 81 16 97 3c a1 c8 8d 40 06 3f 98 40
       1.2163142 0.018443348 4.430741 4.7576933
000020 af 85 8a 40 8e c0 d9 3f 33 92 a3 40 a6 dd b3 40
       4.328819 1.7011888 5.1115966 5.6208067

model.models.3.VQC_forget.weights f4 [2, 6]
000000 e4 7e 93 3f 98 25 93 40 c3 53 91 40 23 3b 57 40
       1.1523099 4.598339 4.541475 3.3629844
000010 04 db f2 3f eb ce 95 40 57 5a 94 40 97 2b b8 40
       1.8973088 4.6815085 4.636028 5.755321
000020 21 ea 6c 40 b4 3c 81 3d e9 d0 bb 40 5c ef 93 3f
       3.70179 0.06310406 5.8692517 1.1557422

model.models.3.VQC_input.weights f4 [2, 6]
000000 de 46 5e 40 f9 84 72 40 0f 1c 6a 40 37 2e bc 40
       3.4730754 3.789366 3.6579626 5.8806415
000010 8e 20 b6 40 77 99 8c 40 bd fa b5 40 c9 13 29 40
       5.691474 4.3937335 5.6868577 2.6418326
000020 e0 73 17 40 c2 44 71 40 4b fd e6 3f 09 2a a6 40
       2.3664474 3.7698216 1.8046049 5.1926312

model.models.3.VQC_update.weights f4 [2, 6]
000000 78 19 6d 40 60 86 32 40 3f de a8 40 51 d5 be 40
       3.7046795 2.7894516 5.2771297 5.9635396
000010 58 83 4c 40 95 06 2e 40 89 36 cd 3f b3 9a 94 3f
       3.1955166 2.7191517 1.6032268 1.160971
000020 2b 47 4c 40 f6 85 5c 40 98 4a 01 3f 95 73 95 40
       3.1918437 3.4456763 0.50504446 4.670359

model.models.3.VQC_output.weights f4 [2, 6]
000000 bc 73 2e 40 9e da 4b 3f 0e 52 38 40 ea 90 22 40
       2.7258139 0.7963046 2.8800082 2.5400949
000010 94 2c 9e 3d 91 dd 4a 40 9f 2d 2a 40 43 24 c9 3f
       0.07723346 3.1697733 2.6590345 1.5714191
000020 37 a2 a9 40 5d 76 4a 40 10 a2 8c 40 6e e4 7b 3f
       5.3010516 3.1634743 4.394783 0.9839543

model.models.4.VQC_forget.weights f4 [2, 6]
000000 43 ff aa 40 7d 5d 90 3f 04 4f 13 3f 87 7c 36 40
       5.34366 1.127853 0.57542443 2.8513505
000010 1c 65 c0 40 4b 56 e0 3f b1 82 c0 40 dc 0b 95 40
       6.0123425 1.7526335 6.0159535 4.6576977
000020 da b1 60 3f d1 37 5d 40 fc 4e 2b 40 a5 79 df 3f
       0.8777138 3.4565318 2.6766958 1.7458998

model.models.4.VQC_input.weights f4 [2, 6]
000000 af a3 1f 40 7c 10 9f 40 d2 e3 b8 40 ca 03 8d 40
       2.4943655 4.9707623 5.77781 4.4067125
000010 3b 6d a3 3f db a8 c2 40 ef b9 b5 40 bd 53 d8 3f
       1.276771 6.0831122 5.678947 1.6900555
000020 17 28 b8 3f a6 94 ee 3f 34 62 53 40 f2 90 be 3f
       1.4387234 1.8639114 3.3028688 1.4887984

model.models.4.VQC_update.weights f4 [2, 6]
000000 98 bf bb 3f 1c 36 e3 3f b9 42 86 40 77 9d 61 40
       1.4667845 1.7750888 4.195645 3.525236
000010 0d de 78 40 1f 99 a1 40 37 29 b6 3f 21 c4 b2 40
       3.888553 5.0499415 1.4231328 5.5864415
000020 b3 a3 26 40 31 16 63 3e 9c 96 48 3e c2 32 4e 3f
       2.6037414 0.22176434 0.19588703 0.805462

model.models.4.VQC_output.weights f4 [2, 6]
000000 ec 82 db 3f 1f 26 a7 40 2c 1d 5a 40 f8 38 48 40
       1.7149329 5.2234035 3.4080305 3.128477
000010 e0 1d c1 40 b6 8a 37 40 1c 69 b5 3f 44 43 33 40
       6.034897 2.8678412 1.4172702 2.8009806
000020 bf 90 a0 40 b5 7c 84 3f ef b4 52 40 9a 0e 81 40
       5.017669 1.0350558 3.2922933 4.0330324

model.models.5.VQC_forget.weights f4 [2, 6]
000000 49 68 44 40 8f e5 cd 3f fc 34 c3 40 c9 e7 c1 40
       3.068865 1.6085681 6.100218 6.059544
000010 1e 1e 02 40 e3 ed 44 40 b0 0a 20 3d 9f c3 e4 3f
       2.0330882 3.0770195 0.039072692 1.7872199
000020 dd 86 af 3f f0 54 73 40 86 d5 15 3f 8a ea 5f 40
       1.3713032 3.8020592 0.58528936 3.4986901

model.models.5.VQC_input.weights f4 [2, 6]
000000 5f 97 05 40 29 d3 6f 40 37 58 51 40 7b ab 0e 40
       2.087364 3.7472632 3.2710092 2.2292163
000010 61 d7 a0 40 01 39 80 40 b4 9e 4e 40 21 62 9d 3f
       5.0262914 4.0069585 3.2284365 1.2295572
000020 91 49 92 40 5a 14 b0 40 f2 31 15 40 c7 8b b9 3f
       4.5714803 5.5024843 2.3311734 1.4495782

model.models.5.VQC_update.weights f4 [2, 6]
000000 46 95 95 40 65 65 11 3f 54 6d 1f 40 1b 58 67 40
       4.674472 0.5679534 2.4910479 3.6147525
000010 0a 3e c5 40 4f 3c d7 3f df 65 8c 40 b1 2f 56 3f
       6.163823 1.681528 4.3874354 0.8366652
000020 25 9f 8e 40 58 7a 89 40 cb a6 62 40 66 ae 31 40
       4.456927 4.2961845 3.5414302 2.7762694

model.models.5.VQC_output.weights f4 [2, 6]
000000 6c 1d b2 40 9f 6a 35 40 e0 cd 14 40 72 0d 1c 40
       5.5660915 2.8346326 2.3250656 2.4383206
000010 5c 56 a8 40 62 78 17 40 fe 9a 83 3f a4 88 14 40
       5.260542 2.3667226 1.0281675 2.32084
000020 b4 b4 b1 40 14 2a 7a 40 6b 60 55 40 5e ab 38 40
       5.5533085 3.9088182 3.33401 2.8854594

model.models.6.VQC_forget.weights f4 [2, 6]
000000 69 a9 50 40 96 2b 69 3f 4d 0a 4e 40 bf e9 6f 3d
       3.26034 0.9108213 3.2193787 0.058572527
000010 7e 8c be 3d ee c1 33 3f 61 a3 77 3e 36 eb 02 40
       0.093041405 0.7021779 0.24183418 2.0456061
000020 6e 3e 23 40 41 e5 c5 40 ce 46 64 40 02 54 37 3f
       2.5506854 6.184235 3.5668216 0.7161256

model.models.6.VQC_input.weights f4 [2, 6]
000000 a3 47 0f 40 f2 a5 69 40 d2 43 0f 40 d9 27 20 3e
       2.2387474 3.6507535 2.2385144 0.156402
000010 8a 5b b6 40 1f c9 15 40 1e 07 65 40 fa 54 8d 3f
       5.698674 2.3404005 3.5785594 1.1041558
000020 15 22 b6 40 f9 f9 79 40 79 b7 b7 40 a6 91 91 40
       5.6916604 3.9058821 5.7411466 4.5490294

model.models.6.VQC_update.weights f4 [2, 6]
000000 4b 9c a9 40 d2 c0 6a 40 99 4d 6f 40 e2 4a 11 40
       5.3003287 3.6680188 3.7391112 2.2701955
000010 9e 2e f9 3f 5f a3 ed 3f 1a 29 27 40 34 c7 58 40
       1.9467351 1.8565482 2.6118836 3.3871584
000020 11 7d 11 40 28 9e 9b 40 44 77 86 40 4f 0c 35 3f
       2.2732584 4.863056 4.202059 0.70721906

model.models.6.VQC_output.weights f4 [2, 6]
000000 88 21 a5 40 e5 38 56 3f 0d f9 28 40 42 09 0b 40
       5.160343 0.83680564 2.6402009 2.17244
000010 78 0b 94 40 87 cd 0f 40 44 19 ab 3f 0a 5e 28 3f
       4.6264 2.2469194 1.3367085 0.6576849
000020 ce 8d 73 40 13 07 91 3f 45 e8 4f 40 67 5e 75 40
       3.80553 1.1330284 3.2485516 3.8338869

model.models.7.VQC_forget.weights f4 [2, 6]
000000 7c 59 c8 40 6a 46 97 3b 47 66 6b 3f cf 1f 61 40
       6.2609234 0.0046165483 0.9195294 3.5175664
000010 dc ac 23 40 b5 87 a4 40 f8 d8 29 3f 64 39 a7 40
       2.5574255 5.141566 0.66346693 5.2257557
000020 16 e1 6c 3e 77 2c 0d 40 ff 60 17 40 db 57 6a 40
       0.23132738 2.205839 2.3652952 3.6616123

model.models.7.VQC_input.weights f4 [2, 6]
000000 77 ac c2 40 e0 aa d6 3f ff e7 ac 40 de ac b9 40
       6.083553 1.6770897 5.40332 5.802352
000010 ec 56 0b 3f a1 50 d6 3f d6 52 bd 3f ef f6 c7 40
       0.5442951 1.6743356 1.4790905 6.2488933
000020 9b f1 31 40 f0 ec ef 3f 4d d1 89 40 a1 c4 77 40
       2.7803714 1.8744183 4.3067994 3.8713763

model.models.7.VQC_update.weights f4 [2, 6]
000000 9b 14 a5 3e ce d1 9f 40 ea da bb 3f 6a 44 3c 40
       0.32242283 4.994361 1.4676182 2.9416757
000010 a7 46 90 40 e4 bb 92 40 85 25 05 3f b1 4d 63 40
       4.5086246 4.585436 0.52010375 3.551617
000020 c6 5b 9f 40 ca 58 7b 40 3f 4e bf 40 21 0a c0 40
       4.979953 3.9272943 5.9783015 6.0012364

model.models.7.VQC_output.weights f4 [2, 6]
000000 12 a5 4a 3f 33 57 b2 40 6a 0a 85 40 9b 0a ea 3f
       0.7915813 5.5731444 4.1575212 1.8284487
000010 ea 06 32 3f dd 50 36 40 ad 9b 90 40 25 30 98 3f
       0.695418 2.8486855 4.5190034 1.1889693
000020 06 aa b2 40 9f dc 94 40 75 fb f4 3f eb 58 68 40
       5.583255 4.6519313 1.9139239 3.6304271

model.models.8.VQC_forget.weights f4 [2, 6]
000000 bf e8 80 40 4e 9c 02 40 f6 63 f4 3f 97 bf 04 3e
       4.0284114 2.04079 1.9093006 0.1296371
000010 25 65 a2 40 05 44 1b 40 a5 54 2c 40 c8 6f 33 40
       5.0748467 2.4260266 2.6926663 2.8036976
000020 57 7b 25 40 82 a2 a6 40 e3 95 6f 40 4f 7e 06 3f
       2.585653 5.2073374 3.7435234 0.5253648

model.models.8.VQC_input.weights f4 [2, 6]
000000 7f ef 87 3f 3c 71 a5 3f 18 14 1e 40 e4 b4 2d 40
       1.0619963 1.2925181 2.4699764 2.7141657
000010 7a 1e 3e 40 96 c0 7b 40 75 7e c7 40 b4 35 f2 3f
       2.9706101 3.9336295 6.2341866 1.8922639
000020 c2 8e c0 40 9f 28 51 3e 63 46 35 40 94 90 97 40
       6.0174265 0.20425652 2.832421 4.7363987

model.models.8.VQC_update.weights f4 [2, 6]
000000 b4 cd f3 3f 5c 60 2a 40 59 1e 03 3c 40 d5 98 40
       1.9047151 2.6621313 0.008002841 4.7760315
000010 f2 6b 71 40 37 b5 ad 40 7a 86 d6 3e b1 f2 9e 40
       3.7722135 5.428371 0.41899472 4.9671254
000020 22 f0 40 40 32 25 b4 3f a4 3f a9 40 ee 28 bd 3f
       3.0146565 1.4073851 5.2890186 1.4778116

model.models.8.VQC_output.weights f4 [2, 6]
000000 68 49 a3 40 45 b4 ad 40 da e2 96 3f 4b f0 40 40
       5.1027107 5.4282556 1.178798 3.0146663
000010 01 43 96 40 63 10 aa 3f 02 7e af 40 3e cd 48 3f
       4.695679 1.3286251 5.484132 0.78438175
000020 2f 8f 25 40 8b 03 8c 40 c5 48 97 3d cc 30 b1 40
       2.5868642 4.3754325 0.073869266 5.5372066

model.models.9.VQC_forget.weights f4 [2, 6]
000000 cb 7d 6e 40 df 83 05 40 df ab 9d 3f 71 c9 21 40
       3.7264278 2.0861738 1.2318076 2.52792
000010 83 8a b0 3f 81 bc 69 40 95 ab bd 40 00 7d 17 3d
       1.379227 3.6521304 5.927195 0.036984444
000020 67 c0 a1 40 f0 8c bc 40 5f 65 19 3f 0f af 32 40
       5.0547366 5.8922043 0.59920305 2.7919347

model.models.9.VQC_input.weights f4 [2, 6]
000000 0d 21 5a 40 b8 78 51 40 27 d9 6f 3f 35 81 a8 40
       3.4082673 3.272993 0.93690723 5.2657723
000010 4a f0 8e 40 00 84 99 3e 70 2c 08 40 b6 80 0b 40
       4.466832 0.2998352 2.1277122 2.179731
000020 4f 45 a3 3f 48 63 c9 3f 68 55 df 3e 98 b4 4f 40
       1.2755526 1.5733423 0.43619847 3.2453976

model.models.9.VQC_update.weights f4 [2, 6]
000000 d5 4e d9 3e f2 ae 80 40 51 ec b6 40 fc 74 0d 40
       0.42442957 4.0213556 5.716347 2.2102652
000010 17 60 35 40 61 63 c8 40 20 61 bc 40 7a 46 7c 40
       2.8339899 6.262131 5.886856 3.9418015
000020 f8 f4 dd 3f 4c 12 bc 40 d9 33 a8 3e a8 12 95 40
       1.7340384 5.8772335 0.32852057 4.6585274

model.models.9.VQC_output.weights f4 [2, 6]
000000 26 8d 71 3d 3c f2 4d 3f 8f 83 ae 3e 93 fd 33 40
       0.0589725 0.80447745 0.34084746 2.812352
000010 f6 91 15 40 8e 4e 3f 40 d6 4b d8 3f 58 cf 9f 3f
       2.3370337 2.9891696 1.6898143 1.2485151
000020 f1 75 67 40 88 e0 84 40 07 ad af 40 d4 30 83 40
       3.6165736 4.1524086 5.4898715 4.0997105

model.models.10.VQC_forget.weights f4 [2, 6]
000000 82 07 86 40 35 67 bb 40 ab f5 d0 3f aa 9b 76 40
       4.1884165 5.8563485 1.6324972 3.853251
000010 70 6a 02 40 c8 9c b9 40 e1 6c 63 3f 8c 5c a8 40
       2.0377464 5.8003883 0.8883801 5.261297
000020 f0 a1 b3 40 ae 00 4f 3e bc e8 89 40 3d e6 99 40
       5.6135178 0.20215103 4.30966 4.8093553

model.models.10.VQC_input.weights f4 [2, 6]
000000 5c e4 46 3f b4 91 4d 40 40 3c 82 40 9c 2f aa 40
       0.776922 3.212018 4.0698547 5.3183117
000010 ac f2 85 40 a4 11 c7 3f 54 fd 88 40 05 08 90 40
       4.185873 1.5552258 4.280924 4.500979
000020 ec 20 b3 40 61 91 8e 40 bc f4 0d 40 ab f7 3c 40
       5.597769 4.4552464 2.2180624 2.9526165

model.models.10.VQC_update.weights f4 [2, 6]
000000 3f 56 ee 3d b7 b4 1c 3f 90 4d 11 40 93 a8 6d 40
       0.11637544 0.6121325 2.270359 3.713414
000010 d3 6f e3 3e 5b 8c 60 40 1d 6f 4a 40 11 c2 c4 3f
       0.44421253 3.5085666 3.1630318 1.5371724
000020 c1 85 90 3d 8f b5 95 40 d0 f8 87 40 1e b3 bc 3f
       0.070567615 4.678413 4.2491226 1.4742162

model.models.10.VQC_output.weights f4 [2, 6]
000000 e1 42 94 40 51 ee 1b 40 53 43 ac 3d 0b 27 db 3f
       4.633164 2.4364207 0.084112786 1.712129
000010 ec 2e b7 40 86 7b 79 40 e1 53 51 40 2a 0b 9c 40
       5.724478 3.8981643 3.2707446 4.876363
000020 2e d6 18 40 30 1f be 3f 03 12 7d 40 c2 d5 2e 3f
       2.3880725 1.4853268 3.9542243 0.6829492

model.models.11.VQC_forget.weights f4 [2, 6]
000000 21 43 04 40 b9 9a a7 40 58 b0 60 40 de 91 eb 3e
       2.0665972 5.237637 3.5107632 0.46009725
000010 19 5b bd 40 a9 8a a0 3f 40 6c 98 40 13 ce a2 40
       5.9173703 1.2542316 4.763214 5.0876555
000020 d7 10 bf 40 24 01 99 40 22 38 f6 3e 82 ed c0 40
       5.9708056 4.781389 0.480897 6.0289927

model.models.11.VQC_input.weights f4 [2, 6]
000000 97 3a 40 40 bb a6 89 40 75 63 8d 40 20 4d b3 40
       3.003576 4.301603 4.4183908 5.6031647
000010 fa 19 0c 40 7a 5a 39 40 66 71 b7 40 b9 7b d1 3f
       2.1890855 2.8961473 5.7325926 1.6365882
000020 58 15 b6 40 ce ea b7 40 3d d6 7d 40 6f 00 ef 3e
       5.6901054 5.7474127 3.966201 0.46680018

model.models.11.VQC_update.weights f4 [2, 6]
000000 30 b0 a8 40 d5 31 3b 3f d0 3b 9c 3f 1c 81 67 40
       5.2715073 0.7312291 1.2205753 3.6172552
000010 36 32 ad 40 48 ed 53 40 79 36 d1 3f b5 b4 81 3f
       5.4123793 3.3113575 1.6344749 1.0133272
000020 84 a7 a1 3e 18 01 de 3f 3f a0 6e 3f d0 1f b0 40
       0.31573117 1.7344084 0.93213266 5.5038834

model.models.11.VQC_output.weights f4 [2, 6]
000000 3b c7 96 40 a9 1f c3 40 b9 4f c5 40 f3 2a 3e 40
       4.71182 6.097615 6.165982 2.9713714
000010 04 4b af 40 f1 a6 97 40 41 00 9c 40 41 f4 4c 40
       5.477907 4.7391286 4.875031 3.202408
000020 83 eb 08 40 f5 06 c7 40 d9 db d0 3f fe a5 df 3f
       2.1393745 6.2195992 1.6317092 1.7472532

model.models.12.VQC_forget.weights f4 [2, 6]
000000 14 2f 88 3f cc d3 06 3e bc fa c3 40 82 64 76 3e
       1.0639367 0.13166732 6.124357 0.24061778
000010 63 d9 10 40 08 56 aa 3f 5f d0 8d 40 2d c5 25 3f
       2.2632682 1.3307505 4.431686 0.6475399
000020 56 3a a0 40 17 04 11 40 8c dc f1 3f e2 d5 60 40
       5.007121 2.2658746 1.889543 3.5130544

model.models.12.VQC_input.weights f4 [2, 6]
000000 22 eb a7 40 fa 40 8f 40 0e 4c 32 40 1b 54 18 40
       5.2474527 4.4766817 2.785892 2.3801334
000010 91 9b 82 3f de fd 1e 40 b7 22 5b 40 32 29 90 40
       1.0203725 2.4842448 3.4239938 4.5050287
000020 8e 65 2a 3f 94 0e ee 3d fd b6 a7 40 af d4 b7 40
       0.6656121 0.11623874 5.2410874 5.7447124

model.models.12.VQC_update.weights f4 [2, 6]
000000 50 45 94 3d 32 30 2e 40 49 49 07 40 0a 61 cb 3f
       0.07239783 2.7216916 2.113848 1.5888989
000010 51 22 09 40 fd d4 b8 40 88 f3 d8 3f 63 e6 b6 40
       2.1427195 5.7759995 1.694932 5.7156234
000020 7a 66 bb 3c 3b c4 b9 40 de 99 e6 3d fa 07 8a 40
       0.022876013 5.805204 0.112598166 4.3134737

model.models.12.VQC_output.weights f4 [2, 6]
000000 1b f6 89 3f aa 27 da 3f 81 fa 95 40 29 d2 a0 40
       1.077823 1.7043355 4.686829 5.0256543
000010 5c 89 c4 40 c5 2c ad 3f 69 7b b9 40 b4 60 6c 40
       6.1417675 1.3529288 5.7963147 3.6934023
000020 cd a9 3f 40 ad f9 f3 3f 2b 67 67 40 60 d7 0d 40
       2.9947388 1.906057 3.6156719 2.2162704

model.models.13.VQC_forget.weights f4 [2, 6]
000000 73 2e 12 40 c3 10 34 40 e8 1a 8c 40 61 f5 c8 40
       2.284085 2.813523 4.3782845 6.2799535
000010 36 4e 3d 3e 61 38 9e 40 4b 4d bd 40 fa 93 5e 40
       0.18486866 4.944382 5.915685 3.4777818
000020 b2 3c b3 40 2a da 64 3f f9 8f e6 3f be 4b 08 40
       5.601159 0.8939539 1.8012687 2.129623

model.models.13.VQC_input.weights f4 [2, 6]
000000 5d 0d cd 3e cc 3e 18 3e 84 27 14 3f 6d 9f 6d 40
       0.40049258 0.14867705 0.57872796 3.7128556
000010 46 2f ee 3e 20 f5 9e 3f 1b d5 a2 40 8e 88 c0 40
       0.46520442 1.2418556 5.088514 6.0166693
000020 97 7d 9e 40 b8 00 bf 3f 51 5a 0a 3c 11 aa 75 40
       4.952831 1.4922094 0.008444385 3.838505

model.models.13.VQC_update.weights f4 [2, 6]
000000 72 0f 50 3f 0c ab fb 3f 5b 39 f5 3f 6b a2 78 40
       0.8127357 1.9661574 1.9158128 3.8849132
000010 ee 64 6c 40 1c 47 ac 40 ec 92 a3 40 e3 12 c8 40
       3.6936603 5.3836803 5.111685 6.2523055
000020 87 21 7e 40 10 8f dc 3f 11 36 0f 3f e7 c0 90 3f
       3.9707963 1.7231159 0.55941874 1.1308869

model.models.13.VQC_output.weights f4 [2, 6]
000000 7d 78 50 40 32 28 7c 3f 5c 81 f2 3e ab d3 92 40
       3.257354 0.98498833 0.47364318 4.5883384
000010 cf 7f 4a 40 45 17 9c 3f 6f 51 06 40 29 2e 8d 3e
       3.1640508 1.2194601 2.0987203 0.2757428
000020 3a fd 54 40 3e 42 cc 3e 7a 6c e7 3f bd 9f 75 40
       3.3279557 0.3989429 1.807998 3.8378747

model.models.14.VQC_forget.weights f4 [2, 6]
000000 da f8 bc 40 da 29 be 3f c9 2b 6b 40 fd 62 a4 40
       5.9053774 1.4856522 3.6745474 5.1370835
000010 06 9b 51 40 e2 76 05 3f b3 a3 22 40 ac 94 15 40
       3.2750869 0.52134526 2.5412414 2.3371992
000020 03 9b 37 3f 93 d2 c5 3e 21 cf bc 40 09 42 a8 3f
       0.71720904 0.38637218 5.9002843 1.3145152

model.models.14.VQC_input.weights f4 [2, 6]
000000 0c 44 e1 3f 03 b6 71 40 77 de 14 3f fe de b0 3d
       1.7598891 3.776734 0.58151954 0.086362824
000010 0d 83 69 40 00 1b 48 40 fe ec b8 40 20 89 97 3e
       3.6486237 3.126648 5.7789297 0.29596806
000020 7d f2 b8 3f 4c 11 ae 40 93 1c 7c 40 bd 6f 00 3f
       1.4449002 5.4396114 3.939244 0.501705

model.models.14.VQC_update.weights f4 [2, 6]
000000 6e 47 bc 40 71 a0 5d 40 0f d9 bf 3f 99 e5 44 40
       5.8837194 3.4629176 1.4988116 3.0765135
000010 e9 7a 00 40 21 3f 17 40 d6 4a de 3f 0b 64 b9 3d
       2.0075018 2.363228 1.7366588 0.09052285
000020 fb 34 52 3f 87 cd 74 40 34 cf 94 40 59 81 31 40
       0.8211209 3.8250444 4.6502934 2.7735198

model.models.14.VQC_output.weights f4 [2, 6]
000000 97 d2 43 40 28 93 32 40 10 1f 58 40 6f a8 33 40
       3.0597284 2.7902317 3.376896 2.8071554
000010 97 8a 03 40 9c 9c 82 3f dc e1 88 40 11 0a 73 3d
       2.0553339 1.0204043 4.2775707 0.059335772
000020 39 91 88 40 24 66 00 40 79 4f b4 40 44 86 6e 40
       4.2677274 2.0062342 5.6347013 3.726945

model.models.15.VQC_forget.weights f4 [2, 6]
000000 58 16 1b 40 58 b3 8a 40 e9 ab a4 40 be 9c 64 40
       2.4232388 4.3343925 5.145985 3.5720668
000010 ac da fe 3f ad 91 5e 40 2c 1a 6f 40 6c 86 aa 40
       1.9910483 3.4776413 3.7359724 5.328909
000020 fb f0 6b 40 c1 2a 96 40 54 7f a3 3f bd 00 70 40
       3.6865833 4.692719 1.2773232 3.750045

model.models.15.VQC_input.weights f4 [2, 6]
000000 66 e1 9a 40 ca f5 82 3f 8a d6 52 40 ff db a0 40
       4.8400145 1.0231259 3.2943444 5.026855
000010 8a 17 20 40 ff d9 6a 40 2d 08 a4 40 9f 3b df 3f
       2.5014367 3.6695554 5.125998 1.744007
000020 25 e8 5d 3e ae 56 d7 3f bc d7 ec 3f 19 c1 9d 40
       0.21670587 1.6823328 1.8503337 4.9298215

model.models.15.VQC_update.weights f4 [2, 6]
000000 dc c2 1e 3f ab e7 7e 3f 21 3f ba 40 7c 45 83 3f
       0.6201608 0.9957225 5.820206 1.025558
000010 69 37 80 3f 02 7b 57 3f 6e 91 af 3f 17 61 86 3f
       1.001691 0.8417207 1.3716257 1.049838
000020 59 70 11 40 8a c6 1b 40 c0 01 74 40 95 22 82 40
       2.2724822 2.4339929 3.8126068 4.0667214

model.models.15.VQC_output.weights f4 [2, 6]
000000 a8 3f 64 40 14 73 8d 3f f6 38 23 40 90 5c 58 3f
       3.5663853 1.1050744 2.5503516 0.8451624
000010 88 40 11 40 b9 45 88 40 4e 5b d6 3f 48 92 d1 3f
       2.2695637 4.258511 1.6746614 1.6372766
000020 90 4b 22 3f 79 9d 8f 3e e5 12 4c 3f 9d 98 bf 40
       0.6339655 0.2804983 0.7971633 5.9873796

model.models.16.VQC_forget.weights f4 [2, 6]
000000 ac e1 a4 40 d5 a7 66 40 8e b8 8f 40 2d 83 12 40
       5.152548 3.6039937 4.4912786 2.2892563
000010 d1 b4 11 3f be 47 07 3f f1 58 97 40 75 66 b3 40
       0.5691653 0.52843845 4.729607 5.606257
000020 b7 21 95 3f c5 15 5b 40 4b a3 36 40 57 cf c6 40
       1.1650914 3.4232037 2.8537166 6.21281

model.models.16.VQC_input.weights f4 [2, 6]
000000 f9 95 84 40 2e af 72 3f 2a 9c 74 3f 36 12 76 3f
       4.143307 0.94798553 0.9555079 0.9612154
000010 39 f0 a3 40 99 1a 49 40 3a 07 f1 3f ce 9c b7 3e
       5.123074 3.1422484 1.883033 0.3586182
000020 95 84 1f 3f 09 0d 0c 3e 8c 37 bd 40 59 16 34 40
       0.6231168 0.13676848 5.9130306 2.813864

model.models.16.VQC_update.weights f4 [2, 6]
000000 23 13 9d 40 5a bf bf 3f a2 af 2c 3f ae 0d 17 40
       4.908586 1.4980271 0.67455494 2.36021
000010 0d 67 c2 3f da cc 13 3e ff 1a a7 3f 4c c8 0c 40
       1.5187699 0.14433613 1.3055114 2.1997252
000020 17 ad c5 40 c8 ab 2c 3c 85 5a 29 40 7f 45 a6 40
       6.177379 0.010539003 2.6461499 5.1959834

model.models.16.VQC_output.weights f4 [2, 6]
000000 e3 8a 3b 40 54 e3 51 40 2b 13 28 40 7d 7c 63 3f
       2.930352 3.2795 2.62617 0.8886183
000010 91 c6 48 3f 16 6a 14 40 57 be 1b 40 27 1a 93 40
       0.7842799 2.318975 2.4334924 4.5969424
000020 b4 de f4 3e 5b bd fb 3e 05 e1 0d 40 c6 9a 3b 40
       0.4782616 0.49167904 2.216859 2.9313216

model.models.17.VQC_forget.weights f4 [2, 6]
000000 ff 3d c9 3d 07 c9 c8 40 b4 8e 55 40 d1 b4 14 40
       0.09826278 6.2745395 3.336835 2.3235362
000010 a7 1a a1 40 3d 46 af 40 db c5 0e 3f 4a 93 b0 40
       5.0345035 5.477324 0.55770653 5.5179796
000020 e5 9f 20 40 aa 09 c0 40 a2 87 0f 40 64 fc 8a 40
       2.5097592 6.0011797 2.2426534 4.3433094

model.models.17.VQC_input.weights f4 [2, 6]
000000 ca 28 0f 3f ac e9 8a 40 e6 e8 5e 3f 07 1a 19 40
       0.55921614 4.3410244 0.87074125 2.3922136
000010 8e 0f 1a 3b 5a 24 80 40 97 d6 a5 3f 1e b6 e3 3e
       0.0023507806 4.0044374 1.2956113 0.44474882
000020 83 81 78 40 a7 e1 dd 3f e9 7f b9 3f 4c 5b 88 40
       3.8829048 1.7334489 1.449216 4.2611446

model.models.17.VQC_update.weights f4 [2, 6]
000000 57 1c 7d 40 f0 92 ac 40 0c 67 87 3f c6 2b bf 40
       3.9548547 5.3929367 1.0578322 5.9740934
000010 21 b6 4a 40 85 5c 10 3e d6 fe 17 3f 8d 5c cc 3f
       3.1673663 0.14097793 0.59373224 1.5965744
000020 b3 0a b3 40 61 fc a3 3f c7 a2 ba 3f 9a 6e a7 3f
       5.595056 1.2811395 1.4580926 1.3080628

model.models.17.VQC_output.weights f4 [2, 6]
000000 0c 8b 00 40 9b 44 74 40 5c 30 c0 40 96 ea 9e 40
       2.0084867 3.8166873 6.0059032 4.966136
000010 61 25 e1 3e 77 b0 1b 40 71 3e bd 3f b2 f3 c2 40
       0.4397383 2.4326456 1.4784681 6.092248
000020 df 58 4c 40 d6 d2 e8 3e 18 24 c7 40 ae 3e 97 40
       3.1929243 0.45473355 6.223156 4.7264013

model.models.18.VQC_forget.weights f4 [2, 6]
000000 97 30 8b 40 9d b8 68 40 15 84 20 3f be 23 8d 3f
       4.3496814 3.636268 0.6270154 1.1026533
000010 a4 55 51 40 d1 f8 83 40 a8 eb 35 3e 6f 51 7e 40
       3.270852 4.124123 0.17765677 3.9737203
000020 e7 9a 2e 40 9f 13 c7 40 a3 19 4b 40 13 5f 9e 40
       2.7282045 6.221145 3.1734397 4.9491057

model.models.18.VQC_input.weights f4 [2, 6]
000000 8f b0 5e 40 bf 2a 8f 40 58 a4 55 40 25 b7 3a 40
       3.4795263 4.473968 3.3381557 2.9174283
000010 34 4c 0a 40 0e d4 c4 3e b9 f8 6b 40 2a 47 8b 40
       2.160901 0.38443035 3.6870558 4.352437
000020 a1 56 0e 40 33 b6 45 40 26 ab 26 3d 53 20 0b 40
       2.2240374 3.0892456 0.040690564 2.173848

model.models.18.VQC_update.weights f4 [2, 6]
000000 3e 14 8e 40 79 e3 bf 40 e3 73 b5 40 6a 80 ca 3f
       4.439971 5.9965177 5.6703963 1.5820439
000010 a5 97 bd 3d 2b 23 5a 40 1f 33 44 3f 6a 47 8e 40
       0.092574395 3.4083965 0.76640505 4.4462175
000020 0b 08 51 40 da 74 24 3f 44 d8 c7 40 da 19 8d 40
       3.266116 0.642408 6.2451496 4.4094057

model.models.18.VQC_output.weights f4 [2, 6]
000000 9b 43 39 40 91 b9 bd 40 03 ea bd 3e 2b 41 24 40
       2.8947513 5.928902 0.370926 2.5664775
000010 1b d0 8f 40 09 c4 85 40 fb dd 7b 40 ac ce 3d 3f
       4.4941535 4.18018 3.9354236 0.7414348
000020 a6 79 5f 40 16 13 83 40 c1 57 44 40 4d 99 a4 3e
       3.4917998 4.09608 3.067856 0.3214821

model.models.19.VQC_forget.weights f4 [2, 6]
000000 1f 72 e7 3f 74 f7 73 40 1e bd b4 40 93 cc 95 3f
       1.8081702 3.8119783 5.6480856 1.1703056
000010 98 72 42 40 9c 72 90 3e 26 a2 b2 40 65 0e 8c 40
       3.0382442 0.2821244 5.5822935 4.376757
000020 5c cf 47 40 99 a8 2b 40 72 b2 5c 40 04 26 ac 40
       3.1220312 2.6821654 3.4483914 5.3796406

model.models.19.VQC_input.weights f4 [2, 6]
000000 b6 ce aa 40 7c 70 47 40 fe f0 1b 40 db 2a c5 40
       5.3377333 3.1162405 2.436584 6.1614814
000010 37 14 0b 40 03 40 21 40 f8 08 97 3f 5d da 87 40
       2.1731088 2.519532 1.1799612 4.2454057
000020 5c 4c 88 40 e3 7e 4a 40 1f 56 c3 40 69 c2 18 40
       4.259321 3.1639946 6.104263 2.3868659

model.models.19.VQC_update.weights f4 [2, 6]
000000 d5 bf 20 40 9b f4 19 3f e3 e5 a1 40 4a be ff 3f
       2.5117085 0.60138863 5.0593123 1.9979947
000010 e5 15 b8 40 0d 3e 78 40 27 2a 9b 3f dc 49 6a 40
       5.7526727 3.8787873 1.2122239 3.660758
000020 38 db 89 40 0f 22 a2 40 55 bc a0 40 88 d1 9c 3e
       4.30801 5.0666575 5.0229897 0.3062861

model.models.19.VQC_output.weights f4 [2, 6]
000000 c0 dd c8 40 3c ad 26 40 44 69 96 40 07 18 78 40
       6.277069 2.6043234 4.70035 3.8764665
000010 a3 78 a8 40 31 da 77 40 8d 77 a0 40 5f d8 3c 40
       5.264726 3.8726923 5.0145936 2.9507062
000020 74 95 b6 3f e0 81 ef 3d 28 7c 50 40 75 bf 34 40
       1.426436 0.116946936 3.257578 2.8241856

model.models.20.VQC_forget.weights f4 [2, 6]
000000 f5 69 a7 40 7f 45 99 40 4f d5 b5 40 97 be 98 40
       5.231684 4.7897334 5.6822886 4.7732654
000010 00 98 82 40 14 b7 d7 3f 9d ab ad 3f 18 bb 9f 40
       4.0810547 1.6852746 1.3567997 4.9915886
000020 4f 83 55 40 ae 72 ee 3f 94 8b 86 40 f4 f3 83 40
       3.3361394 1.8628747 4.2045383 4.1235294

model.models.20.VQC_input.weights f4 [2, 6]
000000 4a 04 39 40 23 51 aa 3f d9 e3 85 40 ad a4 c1 3f
       2.8908868 1.3306011 4.1840634 1.512838
000010 b0 74 86 40 c0 0d a6 40 38 a5 3e 40 27 ee 87 40
       4.201744 5.1891785 2.9788342 4.2478213
000020 3a 1c 8c 40 aa f7 47 3e 0c ce ba 40 ba 36 6a 40
       4.3784456 0.1952807 5.837652 3.6595902

model.models.20.VQC_update.weights f4 [2, 6]
000000 dc b8 c6 40 b4 09 a7 3f 94 f6 0e 40 81 53 94 40
       6.210066 1.3049836 2.2338 4.6351933
000010 8e 09 4e 40 4d fa 0d 40 8c 9d 53 40 f6 1c 1b 40
       3.2193332 2.2184021 3.306491 2.4236426
000020 c1 cc 73 40 2d 1b 60 3e 97 15 b1 40 7c 30 65 3e
       3.8093722 0.21885367 5.5338855 0.22381777

model.models.20.VQC_output.weights f4 [2, 6]
000000 d3 1c d9 3f 43 c1 73 40 27 e1 52 40 b7 52 a0 40
       1.6961921 3.8086708 3.2949922 5.010097
000010 bd 4e 9b 40 dd 43 92 40 6e d4 6b 40 df d8 af 40
       4.8533616 4.570784 3.6848407 5.4952235
000020 ac 51 a3 40 9a 94 9c 40 a0 b0 a6 40 94 5b 5d 40
       5.1037197 4.89314 5.2090607 3.4587145

model.models.21.VQC_forget.weights f4 [2, 6]
000000 f4 19 9b 40 98 b8 41 3e ec 75 9d 40 11 98 7a 40
       4.846918 0.18918073 4.9206448 3.9155314
000010 ea a7 c0 3f 33 12 22 40 3d 02 b2 3f 4f a0 79 40
       1.5051243 2.5323608 1.3906933 3.9004095
000020 4b 1c 59 40 cb 49 d2 3f fb 44 b7 40 95 f3 c3 40
       3.3923519 1.642877 5.7271705 6.123484

model.models.21.VQC_input.weights f4 [2, 6]
000000 64 06 64 40 00 74 e4 3f b0 d8 b1 40 0b 29 8e 3e
       3.56289 1.78479 5.557701 0.27765688
000010 c4 f4 05 3f 53 ac 3e 3f a8 67 b4 40 c9 da 68 40
       0.5232661 0.74481696 5.6376534 3.6383536
000020 82 e9 ba 40 49 31 a2 40 53 08 c8 40 f7 41 32 40
       5.8410044 5.0685163 6.251016 2.7852762

model.models.21.VQC_update.weights f4 [2, 6]
000000 93 af 30 40 1e b9 ec 3f 0d 79 a5 40 21 bd 81 40
       2.7607162 1.8493993 5.1710267 4.054337
000010 bb d5 4e 3f 2a f2 c2 3f 97 f8 ea 3f 58 90 5e 3f
       0.80794877 1.5230153 1.8357114 0.86939
000020 fb 76 99 3f 5e 58 b9 40 68 58 ae 40 9e ee 8d 3f
       1.1989435 5.792037 5.448292 1.1088445

model.models.21.VQC_output.weights f4 [2, 6]
000000 64 68 4f 40 4b f6 3b 40 5e d5 86 40 6a a3 37 40
       3.2407465 2.9369075 4.213546 2.869349
000010 4f 44 9c 40 33 ad 12 3e 7d 77 1b 40 dd d7 60 40
       4.8833385 0.14323883 2.429168 3.5131752
000020 47 00 a6 40 12 a9 af 40 ff 35 26 40 7f d3 08 40
       5.187534 5.4893885 2.5970457 2.1379087

model.models.22.VQC_forget.weights f4 [2, 6]
000000 d2 da 60 40 dc cc 8f 40 d1 8b 1d 40 89 98 1a 40
       3.5133557 4.4937572 2.4616587 2.41556
000010 21 b4 52 40 99 cf 01 3f 03 66 9c 40 48 a7 00 3e
       3.2922442 0.50707394 4.8874526 0.12563813
000020 d7 09 b9 40 7a eb 73 3e 10 8e 31 40 34 b7 a3 3c
       5.782451 0.23820296 2.7742958 0.019984819

model.models.22.VQC_input.weights f4 [2, 6]
000000 75 25 b0 40 4d 24 88 3f ed 63 9d 40 e4 1a 3a 3f
       5.5045724 1.0636078 4.918448 0.7269728
000010 3c b8 2b 40 0b 39 7b 40 09 b2 06 40 53 2f 58 40
       2.6831198 3.9253566 2.1046164 3.3778884
000020 a0 13 a6 40 63 9b e2 3f 95 5e ad 40 f2 2d 96 40
       5.1898956 1.770367 5.4177957 4.6931086

model.models.22.VQC_update.weights f4 [2, 6]
000000 c3 5e a8 3f d3 95 ed 3d 6c 69 41 40 93 ae 06 40
       1.3153919 0.11600842 3.0220594 2.1044052
000010 a5 0a 45 40 44 86 0d 40 5f 7b 3f 40 a5 dc 1f 3e
       3.0787747 2.21132 2.991905 0.15611513
000020 8f ab 55 40 2a ac 80 3f fb 75 30 40 5e fc b8 40
       3.338596 1.005254 2.757201 5.7808065

model.models.22.VQC_output.weights f4 [2, 6]
000000 f8 48 8d 40 08 a6 05 3f 72 31 1d 3e 71 32 99 40
       4.4151573 0.5220647 0.15350893 4.7874074
000010 fc b9 91 40 94 24 45 40 3e b0 86 40 24 a2 19 40
       4.553953 3.0803576 4.209014 2.4005213
000020 81 22 f4 3f 9a 55 82 40 87 7e 09 3f 85 d7 a9 3f
       1.907303 4.0729494 0.5370869 1.3268896

model.models.23.VQC_forget.weights f4 [2, 6]
000000 78 e1 9b 40 d4 54 81 40 2e 59 a4 40 5c aa f6 3e
       4.871273 4.041605 5.135886 0.4817685
000010 01 db d1 3f 01 9a 4d 40 66 f7 53 40 90 ec 6b 40
       1.639496 3.2125247 3.311975 3.6863136
000020 b1 03 ab 40 cd b3 bd 40 7d 15 8d 40 7c ec 8e 3f
       5.3442006 5.9281983 4.408873 1.1165919

model.models.23.VQC_input.weights f4 [2, 6]
000000 90 36 4b 40 9d 4e 8a 40 ac a0 b8 40 90 5e 54 3f
       3.1752052 4.3220963 5.7696133 0.8295679
000010 67 92 b6 40 7e 85 76 3d 7b 07 49 40 c5 0a cb 3f
       5.7053714 0.0601859 3.1410816 1.5862662
000020 33 41 11 40 6d 67 c7 40 12 84 d9 3f 13 cc bf 3f
       2.2696044 6.231375 1.699343 1.4984154

model.models.23.VQC_update.weights f4 [2, 6]
000000 32 75 9b 40 1d 6d 3a 40 9b b4 b5 3f cb 52 1c 40
       4.858056 2.9129097 1.4195741 2.4425533
000010 cc 88 ff 3e 4c 2f a0 3f 1a 96 4f 3e 1b ee aa 3f
       0.49909055 1.2514434 0.20272103 1.3353914
000020 f6 32 96 3f ff ac be 40 8d d2 3a 3f bf b2 b6 3f
       1.1734302 5.9586177 0.72977525 1.4273299

model.models.23.VQC_output.weights f4 [2, 6]
000000 8e fb b0 40 e3 a5 e4 3f 11 6e c4 40 1b 04 96 3e
       5.5307074 1.7863125 6.138436 0.29300007
000010 ac b1 0c 3e b3 05 a8 40 96 bc 89 3f 69 8a a0 40
       0.13739651 5.2506957 1.0760677 5.016896
000020 01 52 67 40 f7 95 94 3f 7b 38 a5 40 7c dc 9d 40
       3.6143801 1.1608266 5.1631446 4.9331646

model.models.24.VQC_forget.weights f4 [2, 6]
000000 d9 5c 91 40 bd 72 71 3f 72 8e c7 40 eb f6 c0 3f
       4.542584 0.943157 6.2361383 1.5075353
000010 42 45 35 40 eb a9 3d 40 a7 71 68 40 b4 49 8b 40
       2.8323522 2.963496 3.6319368 4.352747
000020 e2 d5 7d 40 09 c9 b4 40 1f 5e 49 40 f8 3a 15 40
       3.9661794 5.6495404 3.1463697 2.3317242

model.models.24.VQC_input.weights f4 [2, 6]
000000 fb 58 33 3f 38 08 7b 40 ec 31 94 3f ab 3d 10 3f
       0.7005765 3.9223766 1.1577735 0.563441
000010 49 95 bc 3f 00 5a fa 3f fe 6e 6b 3f 98 93 90 3f
       1.4733058 1.9558716 0.91966236 1.1295042
000020 d4 cd 9f 40 52 3f d0 3f c2 c8 3c 40 1d c2 8e 40
       4.9938755 1.6269324 2.9497533 4.4611955

model.models.24.VQC_update.weights f4 [2, 6]
000000 89 41 a1 40 4b df 58 40 b9 d3 c8 3e 45 e7 9e 40
       5.03925 3.3886287 0.39224032 4.965731
000010 7e e2 91 40 c8 8e 40 40 ea 4d b5 40 21 09 7e 3f
       4.558898 3.0087147 5.665761 0.9923268
000020 f9 8e 4b 40 ac 59 b2 40 ef d0 22 40 55 1f 9b 40
       3.1806014 5.5734463 2.5440023 4.8475747

model.models.24.VQC_output.weights f4 [2, 6]
000000 5a 09 35 40 76 1d 43 40 b5 30 0b 40 51 75 79 3f
       2.8286958 3.0486732 2.1748478 0.97444636
000010 ed 2a 99 40 7c 87 9d 3f 46 20 69 3f 19 7c 85 40
       4.78649 1.2306972 0.9106487 4.1713986
000020 ec 45 c8 40 d9 e8 0c 3e b1 e3 c8 40 67 6c 9b 40
       6.2585354 0.137607 6.2777944 4.8569827

model.models.25.VQC_forget.weights f4 [2, 6]
000000 92 ec 36 40 dd 1e 67 40 17 05 b9 40 64 d6 76 3f
       2.858189 3.6112587 5.7818713 0.96420884
000010 f0 91 a9 3e 00 1d 98 3f c5 cb a3 3f 25 32 45 40
       0.33119154 1.188385 1.279656 3.0811856
000020 64 65 59 40 91 c3 e6 3f 52 d0 85 40 7b ef c4 40
       3.3968134 1.8028432 4.1816797 6.1542335

model.models.25.VQC_input.weights f4 [2, 6]
000000 85 25 a5 40 cd 75 0c 40 ec 0b 8d 3f 25 f2 4c 3f
       5.16083 2.19469 1.1019263 0.80056983
000010 df a7 ef 3f e2 cb 90 40 e7 b3 d8 3f b1 51 73 40
       1.8723105 4.524888 1.6929902 3.801861
000020 7f 1b a9 40 b4 bb c8 40 0d 5d b5 40 58 f3 a2 3f
       5.2846065 6.272913 5.6676087 1.2730513

model.models.25.VQC_update.weights f4 [2, 6]
000000 0a 10 83 40 be df 66 40 eb a8 35 40 fa a3 b8 40
       4.095708 3.6074061 2.838435 5.7700167
000010 d2 30 66 3e 47 f7 c0 3f 6d 51 31 40 95 e8 74 40
       0.22479561 1.5075463 2.7705948 3.8266957
000020 54 16 b7 40 2f 08 97 40 27 f8 8c 40 50 0f ba 40
       5.7214756 4.719749 4.405292 5.814369

model.models.25.VQC_output.weights f4 [2, 6]
000000 17 93 61 3f 5c be c0 3f 88 23 0d 40 80 e7 85 40
       0.88115066 1.5058093 2.2052937 4.1845093
000010 22 66 81 3f c2 cb 92 40 35 3c 2d 40 64 fe 8e 3f
       1.0109293 4.587373 2.7067997 1.1171384
000020 bb b8 87 40 a3 3b 23 40 3d 82 31 40 ad b4 e5 3e
       4.2413 2.550515 2.773574 0.44864407

model.models.26.VQC_forget.weights f4 [2, 6]
000000 e8 77 26 40 8c a5 b1 40 4d 7e a0 40 c2 51 91 40
       2.6010685 5.5514584 5.0154176 4.54123
000010 bf 8b c2 40 71 fd ad 3f e1 97 14 3f 35 38 a1 3f
       6.079559 1.3592969 0.5804425 1.2595278
000020 c9 81 90 40 8f 1c 29 40 ae b2 de 3e c2 e6 5f 40
       4.515843 2.642368 0.43495697 3.4984593

model.models.26.VQC_input.weights f4 [2, 6]
000000 62 c9 7b 3f 8a d4 90 3f 46 13 cb 3f a8 f7 9a 40
       0.9835416 1.1314862 1.5865257 4.8427315
000010 fe b1 ab 40 04 bc dd 3e 91 1e 5d 3f e8 1d 47 40
       5.3654776 0.43307507 0.86374766 3.1112003
000020 e1 f4 0a 40 e3 e2 ad 40 dc d1 e5 3f 4e d4 77 40
       2.1711962 5.433946 1.7954669 3.872333

model.models.26.VQC_update.weights f4 [2, 6]
000000 d0 5f 39 40 ce ee 78 40 1d 6e 9d 40 f7 0f c1 40
       2.896473 3.8895755 4.9196916 6.033199
000010 ef fa cc 3f cf ec e5 3f 19 78 11 3f 8b 99 58 40
       1.6014079 1.7962893 0.5682388 3.3843715
000020 25 ca 37 40 7a 77 b0 3f a5 73 8e 3f 62 65 78 40
       2.871713 1.3786461 1.1129042 3.881188

model.models.26.VQC_output.weights f4 [2, 6]
000000 b2 c2 af 40 66 b8 9d 3f f2 67 88 40 84 d3 84 40
       5.4925165 1.2321899 4.2626886 4.15082
000010 31 ef bd 40 d6 c0 69 40 ea 24 5e 3f 28 29 bd 40
       5.935448 3.6523948 0.86775076 5.911274
000020 1d 45 51 40 e9 e1 a9 40 29 04 90 3c b5 00 bf 3f
       3.2698433 5.308827 0.017580109 1.4922091

model.models.27.VQC_forget.weights f4 [2, 6]
000000 ce b3 2f 3f 69 23 9a 40 af fb bf 40 5a 50 64 40
       0.68633735 4.8168225 5.999473 3.5674043
000010 a9 4e 4e 40 15 76 31 40 a6 9b 95 3e e4 ac 21 40
       3.223551 2.7728322 0.29220313 2.5261774
000020 b3 25 24 40 bd 07 fc 3f b6 84 8a 40 a4 d7 2a 40
       2.564801 1.9689862 4.3287 2.6694117

model.models.27.VQC_input.weights f4 [2, 6]
000000 ac d6 58 40 a2 05 c1 40 14 cc 0e 40 3a f1 9a 40
       3.3881025 6.0319376 2.231206 4.8419466
000010 6a be c8 40 5a 0e 9c 40 de ed 4a 40 eb d5 83 40
       6.273244 4.876752 3.1707683 4.119863
000020 b5 a7 61 3f b1 80 99 40 e7 60 f7 3f d1 21 fc 3f
       0.88146526 4.7969594 1.9326447 1.969782

model.models.27.VQC_update.weights f4 [2, 6]
000000 87 73 9e 40 86 9a 2b 40 39 85 bb 40 1e 7a 68 40
       4.9516025 2.6813064 5.8600125 3.6324534
000010 4c 78 0c 40 5f 60 b3 40 af 19 0d 40 7a e7 4a 40
       2.1948423 5.605514 2.2046926 3.1703782
000020 f4 45 8b 40 a5 2a 87 40 87 4a 5d 40 8b ac ad 3f
       4.352289 4.2239556 3.4576738 1.3568281

model.models.27.VQC_output.weights f4 [2, 6]
000000 62 0d 8a 40 11 5b b5 40 bd 19 50 40 c5 d2 32 40
       4.3141336 5.6673665 3.251571 2.7941144
000010 df 8f bb 40 fa eb a2 40 0b d1 fb 3e 96 04 12 3f
       5.8613124 5.0913057 0.49182925 0.5703825
000020 72 e8 aa 40 ac 27 3e 40 75 88 4b 40 e5 19 5a 40
       5.3408747 2.9711714 3.1802037 3.4078305

model.models.28.VQC_forget.weights f4 [2, 6]
000000 3d 81 5d 40 97 de a2 40 51 31 96 3f d4 39 56 40
       3.461013 5.0896716 1.17338 3.3472795
000010 cb 97 52 3f 61 83 b3 3f 6f 88 b3 40 df 8a 67 40
       0.8226287 1.4024469 5.6104045 3.617851
000020 18 4b bf 40 02 dd 5f 40 1b f3 0d 40 ab fe ad 40
       5.9779167 3.4978642 2.217963 5.4373374

model.models.28.VQC_input.weights f4 [2, 6]
000000 2e 13 34 40 16 f7 72 40 92 2d d7 3e 04 31 14 40
       2.8136706 3.796331 0.42026955 2.3154917
000010 ed f2 a6 3f ea dc 41 40 cd 23 38 40 bb c5 ae 3f
       1.3042885 3.0291085 2.877185 1.3654093
000020 ac 3b 68 40 2c 78 9e 3c ce 2b a7 40 66 5a bb 40
       3.628642 0.019344412 5.2240973 5.854785

model.models.28.VQC_update.weights f4 [2, 6]
000000 e9 ed cc 3f 74 c1 e2 3f 3b b7 16 40 b6 e0 37 40
       1.6010104 1.7715287 2.3549335 2.8730903
000010 ca 97 8b 40 76 43 b2 40 71 dd 60 3f d8 e9 3e 40
       4.362279 5.570735 0.8783789 2.9830227
000020 44 dd 9c 40 82 89 3d 3e 9f 55 95 40 ac ec cc 3e
       4.90201 0.18509486 4.666702 0.40024316

model.models.28.VQC_output.weights f4 [2, 6]
000000 23 f8 11 40 27 21 53 40 05 5d 86 40 88 82 c8 3f
       2.28077 3.2988985 4.198855 1.5664835
000010 ee a2 93 40 05 49 b1 40 14 fe 45 40 41 d8 2c 40
       4.613639 5.5401635 3.0936327 2.700699
000020 b1 3f 80 40 6a 92 d1 3f c4 17 f0 3f c7 99 a1 40
       4.007775 1.6372807 1.8757253 5.0500216

model.models.29.VQC_forget.weights f4 [2, 6]
000000 ca e6 34 40 ce b7 9c 40 aa 77 93 40 40 99 bc 3f
       2.8265862 4.897437 4.6083574 1.4734268
000010 88 f5 b5 40 4c e3 bc 3f 0d 26 c3 40 c0 d3 ea 3e
       5.686222 1.4756866 6.098395 0.45864677
000020 bc 0c 5c 3f ad 58 99 40 c7 bc a0 3f b5 f1 57 40
       0.8595693 4.7920747 1.255761 3.3741276

model.models.29.VQC_input.weights f4 [2, 6]
000000 74 0e c0 3f c3 dc c2 40 ea 32 89 40 5b 53 83 40
       1.5004411 6.0894485 4.287465 4.103925
000010 08 90 ba 40 b4 fc 99 40 33 1f 69 40 7e 7a db 3f
       5.830082 4.8120975 3.6425292 1.7146757
000020 ae be c0 40 62 78 bb 3f d8 6a 53 3f b8 34 74 40
       6.0232763 1.4646113 0.82584906 3.8157177

model.models.29.VQC_update.weights f4 [2, 6]
000000 f1 dd 82 40 a6 05 7d 40 19 8e 00 40 db d7 37 3f
       4.0895925 3.9534698 2.008673 0.71813744
000010 fc aa b8 40 84 cf ab 40 3b c8 94 40 80 4c 6d 40
       5.770872 5.3690815 4.649442 3.7077942
000020 11 06 54 40 0b 4c 82 40 ef b5 b0 40 6a 17 87 40
       3.3128703 4.0717826 5.5222087 4.221608

model.models.29.VQC_output.weights f4 [2, 6]
000000 17 f5 08 40 a5 71 ec 3f 9b 2b 4a 40 33 69 91 40
       2.139959 1.8472182 3.1589115 4.5440917
000010 23 77 ca 3f 51 d9 97 40 1c 86 be 40 a2 da 0b 40
       1.5817608 4.745278 5.953871 2.1852193
000020 34 54 ec 3d 06 29 c5 3f 45 2e 3e 3f 21 79 19 3f
       0.11539498 1.5403144 0.7428935 0.59950453

model.models.30.VQC_forget.weights f4 [2, 6]
000000 c7 e3 97 3f 9c c9 81 3f ca b0 0a 40 de e7 84 3f
       1.1866387 1.0139651 2.1670403 1.038326
000010 d3 8f 53 40 0e 5a 71 40 f4 2d c4 40 b0 65 b8 40
       3.3056533 3.7711215 6.1306095 5.762413
000020 63 38 05 40 02 50 74 3d 71 cf d0 3f 05 e5 99 40
       2.0815666 0.059646614 1.6313306 4.8092065

model.models.30.VQC_input.weights f4 [2, 6]
000000 2e f2 bf 3f c9 fc a4 40 5a 2c f6 3f b5 a6 8e 40
       1.4995782 5.1558576 1.9232285 4.45785
000010 12 6d a9 40 f4 67 81 40 45 72 a5 40 e4 5f 61 40
       5.2945642 4.0439396 5.170199 3.5214777
000020 7e a8 e1 3e 1a a7 81 40 a2 f2 8e 40 55 18 44 40
       0.44073862 4.051648 4.4671183 3.063985

model.models.30.VQC_update.weights f4 [2, 6]
000000 c2 91 b0 40 80 3f ac 40 a2 34 c8 3f e5 c8 a8 40
       5.5177927 5.3827515 1.5641062 5.2745233
000010 fc 6e 84 40 ab 52 cb 3f 1b 08 5b 40 7c ba 98 40
       4.138548 1.5884603 3.4223697 4.772764
000020 62 f3 9c 40 15 bd 5d 40 73 4c 21 40 6d d8 98 3f
       4.90471 3.4646657 2.520291 1.1941048

model.models.30.VQC_output.weights f4 [2, 6]
000000 2c 35 4f 40 ed 08 11 40 a5 e2 d8 3e d3 22 8d 40
       3.2376204 2.2661698 0.42360416 4.410501
000010 64 8d 34 40 c4 3e 64 40 69 b1 d4 3f 42 d1 c1 40
       2.8211298 3.566331 1.6616641 6.056794
000020 66 6f c3 3f 50 1b b2 40 0e 05 94 40 eb 3e 72 40
       1.5268371 5.565834 4.625617 3.7850902

model.models.31.VQC_forget.weights f4 [2, 6]
000000 23 10 d5 3d 7f 7c d1 3f fe ed ac 40 9d c2 60 3f
       0.104034685 1.6366118 5.404052 0.87796956
000010 3a 05 b8 40 a1 18 a2 40 2c 3d 87 40 b9 f7 eb 3d
       5.750638 5.0655065 4.2262173 0.11521859
000020 eb d5 9c 40 5d 16 6b 3f 33 c8 1a 40 7b 6e f5 3e
       4.901113 0.91831 2.4184692 0.47935852

model.models.31.VQC_input.weights f4 [2, 6]
000000 13 e1 66 40 ff 0a 8a 40 b5 23 a8 40 22 83 8f 40
       3.6074874 4.3138423 5.254359 4.4847574
000010 e7 53 89 40 c2 56 4a 40 a7 5d 1c 40 4d 1e b5 3f
       4.291492 3.1615453 2.443216 1.4149872
000020 ad 4e 00 40 13 23 3d 40 ac c1 82 40 d5 0d 62 3f
       2.004802 2.9552658 4.0861416 0.88302356

model.models.31.VQC_update.weights f4 [2, 6]
000000 12 36 76 40 df a5 a1 40 d0 6d 57 40 8f cf fc 3d
       3.8470502 5.051498 3.3660774 0.12344276
000010 e9 4e 88 3f f2 b5 9f 40 0e 45 06 40 16 e4 80 40
       1.0649081 4.99096 2.0979648 4.0278425
000020 9d b7 ab 40 43 ec b4 40 78 39 b4 40 ef d5 22 40
       5.3661637 5.6538405 5.632015 2.5443075

model.models.31.VQC_output.weights f4 [2, 6]
000000 20 5f 90 40 2e 81 a5 40 2c 9e bf 40 bf 99 0d 40
       4.511612 5.172019 5.988058 2.212509
000010 2f 6a ba 40 16 41 9e 40 e8 a0 b8 40 1c 23 96 40
       5.825462 4.945445 5.769642 4.691786
000020 a3 87 92 3f 39 bf 0c 3e 47 e4 b9 40 a6 01 69 40
       1.1447643 0.1374482 5.809116 3.6407256

model.models.32.VQC_forget.weights f4 [2, 6]
000000 0d 7c 02 40 0f fc a7 40 4b b0 1b 40 dd 91 8c 40
       2.0388215 5.249519 2.432635 4.3928056
000010 b4 56 37 40 b7 1b 78 40 02 43 3e 3f 5a 57 b1 3d
       2.864667 3.8766916 0.74320996 0.08659239
000020 bd b0 9c 3f cf 23 a4 3f be a4 9a 40 1b d6 80 40
       1.2241436 1.2823428 4.83261 4.026136

model.models.32.VQC_input.weights f4 [2, 6]
000000 21 a2 53 40 a5 77 4f 40 ca 98 80 40 f3 1d 60 3f
       3.3067706 3.2416775 4.018651 0.875457
000010 83 ea c8 40 e3 4a 08 40 76 40 b4 3f 2f 5a 51 40
       6.278627 2.1295707 1.4082172 3.2711294
000020 79 c9 36 40 78 6a 86 40 d5 f8 35 40 a9 23 a7 40
       2.856047 4.2004967 2.8433125 5.223103

model.models.32.VQC_update.weights f4 [2, 6]
000000 70 73 37 40 01 df 1a 40 60 6d e8 3d a6 b9 b3 40
       2.8664207 2.419861 0.113489866 5.616412
000010 fe 60 3d 40 3c 48 7f 40 82 13 22 3f 53 4f e5 3f
       2.959045 3.9887838 0.63311017 1.7914833
000020 f6 2d 35 3f ed e5 bb 40 f4 35 e8 3e ce ab e9 3e
       0.70773256 5.871817 0.45353663 0.4563889

model.models.32.VQC_output.weights f4 [2, 6]
000000 b9 0b 67 3f d7 47 62 40 72 b8 1a 40 48 ea a2 40
       0.9025226 3.5356348 2.4175076 5.091099
000010 43 dd 24 3f 7a 1f a0 40 49 2b 5c 40 d9 0f 89 40
       0.6440012 5.0038424 3.440142 4.2831845
000020 b0 60 55 40 48 17 8b 40 b6 f8 c0 3e 57 9e 2d 40
       3.3340263 4.346592 0.3768975 2.7127893

model.models.33.VQC_forget.weights f4 [2, 6]
000000 e3 e0 a2 3e 16 f3 1e 3f 3d 68 a8 40 75 4d 9d 40
       0.318122 0.6208967 5.2627244 4.915705
000010 c9 90 a0 40 e9 ab 9e 3e 87 f4 5b 40 9f 42 65 40
       5.017674 0.30990532 3.4367998 3.5821912
000020 95 31 ef 3f df 9b 30 40 b4 f5 b9 40 e5 c7 ac 3f
       1.8687006 2.7595136 5.811243 1.3498503

model.models.33.VQC_input.weights f4 [2, 6]
000000 d7 14 9e 40 b4 a0 b1 40 f0 23 94 40 ec 19 1b 40
       4.940044 5.550867 4.629387 2.4234571
000010 02 fa 7e 40 e3 13 70 40 49 6e 8e 40 d5 2f 92 3e
       3.9840093 3.7512138 4.4509625 0.28552118
000020 e5 b4 a1 40 36 27 7f 3e 2c ef 36 40 40 85 23 40
       5.053332 0.24917302 2.858348 2.555008

model.models.33.VQC_update.weights f4 [2, 6]
000000 27 77 71 40 b5 31 a6 40 b8 9d de 3f 9a 3d bd 40
       3.7728975 5.1935678 1.7391882 5.9137697
000010 d6 3f f9 3f ab 98 b8 40 8c e6 6c 40 83 22 87 40
       1.9472606 5.768636 3.7015715 4.222963
000020 04 05 c5 40 e4 e0 e1 3e 74 6c 94 40 7f c3 c3 40
       6.1568623 0.4411689 4.638239 6.1176143

model.models.33.VQC_output.weights f4 [2, 6]
000000 af 0c d3 3f 8c af 04 40 20 ea 95 40 42 93 62 40
       1.6488246 2.0732145 4.6848297 3.540238
000010 13 5d ab 40 62 83 24 3f 82 1f fc 3f 1a c5 b9 40
       5.3551116 0.64262974 1.9697115 5.8053102
000020 eb ff 84 3f 0f 33 a3 40 57 2c c5 40 01 da af 40
       1.03906 5.0999827 6.1616626 5.495362

model.models.34.VQC_forget.weights f4 [2, 6]
000000 5c 60 84 3f 96 3a 51 40 ca 9c 56 3f ad 18 9b 3f
       1.0341907 3.2692008 0.8383299 1.2116905
000010 95 2b 95 40 6b 01 b3 40 9d c3 c5 3f e8 3e 0c 3e
       4.66157 5.593923 1.5450321 0.13695872
000020 81 b8 bc 3f af 4e d0 3f 30 38 a6 3e cb d2 6a 40
       1.4743806 1.6274012 0.32464743 3.6691158

model.models.34.VQC_input.weights f4 [2, 6]
000000 d5 d9 a8 40 1c 78 7e 40 44 7a 2a 40 03 a0 fa 3f
       5.276591 3.976081 2.6637125 1.9580082
000010 47 47 8c 40 ea 3b 46 3f b2 9e 89 40 3d 19 cf 3f
       4.383701 0.7743517 4.300622 1.6179577
000020 75 5d 28 40 07 b5 3a 3f 41 fd 8d 40 6c c7 bf 40
       2.6307042 0.72932476 4.437165 5.9930935

model.models.34.VQC_update.weights f4 [2, 6]
000000 91 c3 b2 40 01 8d b6 40 6b 2f d9 3f 6e bb 81 40
       5.586373 5.7047124 1.6967596 4.0541296
000010 a8 fd 62 40 9d 9b 9b 40 c2 f9 43 40 00 78 9a 40
       3.546732 4.862746 3.062119 4.8271484
000020 af f0 c4 40 e4 cf 1a 40 11 fa 80 3f cc 03 4d 40
       6.1543803 2.4189386 1.0076314 3.2033567

model.models.34.VQC_output.weights f4 [2, 6]
000000 79 3a a7 40 c7 b4 16 40 a8 36 8d 40 8e 89 a9 40
       5.225888 2.3547838 4.412922 5.2980413
000010 88 95 c4 3f 6a 14 fc 3f 6a 95 55 40 01 02 89 40
       1.5358133 1.969373 3.3372445 4.2814946
000020 5d 96 c7 40 c2 74 0e 40 e3 53 91 40 17 b3 05 3f
       6.237105 2.2258763 4.54149 0.52226394

model.models.35.VQC_forget.weights f4 [2, 6]
000000 87 87 98 40 0a 68 a9 40 48 30 82 40 ce 6e 2b 40
       4.766544 5.29395 4.0683937 2.678638
000010 fa 88 5b 40 5a f8 a6 40 71 dd 66 40 cc c2 3a 40
       3.4302354 5.2178164 3.6072657 2.9181395
000020 8b f6 33 40 08 9d 86 40 24 41 66 40 3a 46 01 40
       2.8119228 4.206669 3.5977259 2.0199113

model.models.35.VQC_input.weights f4 [2, 6]
000000 5d 8b 82 40 79 68 91 40 88 7c 97 40 45 9c 15 40
       4.079512 4.544003 4.7339516 2.337663
000010 53 24 19 40 26 00 9b 40 69 1b c7 3e 69 ac 12 40
       2.392842 4.843768 0.388881 2.291773
000020 fa 91 08 40 31 8a fa 3f 73 6d 83 40 d5 83 48 3f
       2.1339097 1.9573423 4.1071105 0.7832616

model.models.35.VQC_update.weights f4 [2, 6]
000000 9b 18 5c 40 49 46 ab 40 8b 6e 25 40 d9 f0 66 40
       3.4390018 5.3523297 2.584872 3.6084502
000010 cd 8b 49 3f 0f 77 d4 3f 09 ac bf 3f b9 b2 39 40
       0.78728944 1.6598834 1.4974376 2.9015334
000020 d4 ed e1 3f 57 e4 f9 3f 43 2f 91 3f e7 37 8d 3f
       1.7650704 1.9522809 1.1342548 1.1032685

model.models.35.VQC_output.weights f4 [2, 6]
000000 78 67 42 40 c5 e0 bb 40 6e de a7 40 02 84 a5 40
       3.0375652 5.8711877 5.245902 5.172364
000010 78 f7 cf 3f cf 16 f4 3f 41 18 53 3f 3a f8 a1 3f
       1.6247396 1.9069461 0.82458884 1.2653878
000020 16 d5 84 40 2d c1 c2 40 24 44 d3 3f 7e 02 ee 3f
       4.1510115 6.086081 1.650517 1.859451

model.models.36.VQC_forget.weights f4 [2, 6]
000000 b8 4c c4 40 15 58 b3 3f f5 77 b8 40 6b 64 e5 3e
       6.134365 1.4011256 5.764643 0.44803175
000010 f7 47 bc 40 59 f6 39 40 ba 77 b5 40 22 30 ca 3f
       5.883785 2.9056609 5.670865 1.5795939
000020 b7 c6 a4 40 77 11 6f 3f 70 a4 02 3f a7 3e 52 3f
       5.149257 0.93386024 0.5103216 0.8212685

model.models.36.VQC_input.weights f4 [2, 6]
000000 05 b1 4d 40 1e 2b 6a 40 e4 87 92 40 80 60 bc 40
       3.2139294 3.6588817 4.579088 5.88678
000010 7c 02 8a 40 1d 46 13 40 bd 14 c6 40 bb e6 75 40
       4.3128033 2.3011544 6.1900315 3.8422077
000020 dc 82 a0 40 ba e8 93 40 9d 05 fc 3f 74 d7 f5 3f
       5.015974 4.622159 1.9689213 1.9206376

model.models.36.VQC_update.weights f4 [2, 6]
000000 c5 be 97 40 e0 4d b6 40 ba 03 9f 40 d0 ab 43 40
       4.7420373 5.697006 4.969205 3.0573616
000010 fe 6b 39 3f 4e e6 8e 40 0a d2 0e 40 47 1b 86 3e
       0.7243041 4.4656134 2.2315698 0.26192686
000020 b1 ea 86 40 ad 06 bd 3f cb 2b 7a 40 31 25 99 40
       4.216149 1.4767662 3.908923 4.78579

model.models.36.VQC_output.weights f4 [2, 6]
000000 10 e2 00 40 d6 3d dd 3f 01 65 9a 3f 98 6b c7 40
       2.0137978 1.7284496 1.2062074 6.231884
000010 1c 55 7a 40 24 e4 53 3f 6d 50 bd 40 3d 99 81 40
       3.9114447 0.8276999 5.9160676 4.049956
000020 81 75 1e 40 85 70 a4 3f 5f 3d fe 3f 46 87 07 40
       2.4759219 1.2846838 1.9862479 2.1176314

model.models.37.VQC_forget.weights f4 [2, 6]
000000 50 d0 85 40 e5 9c 93 40 37 37 8f 40 71 19 ba 40
       4.181679 4.612902 4.47549 5.8156056
000010 9e 1d b8 40 13 bf af 40 e5 34 9b 40 1b dc 5c 40
       5.7536154 5.4920745 4.850207 3.4509342
000020 a7 c5 e2 3f 52 db af 40 6e ed 76 40 99 8d 24 40
       1.7716569 5.4955225 3.8582416 2.5711424

model.models.37.VQC_input.weights f4 [2, 6]
000000 aa d9 63 40 73 42 33 40 32 f6 82 3e 5c 2f ca 3f
       3.5601602 2.8009307 0.25578457 1.5795703
000010 fc 3a 6a 40 b1 46 e8 3e 64 60 af 3f ca c7 df 3f
       3.6598501 0.45366433 1.3701291 1.7482846
000020 ce f0 ae 40 65 68 57 40 be fb 03 40 b5 de 93 40
       5.466895 3.3657467 2.0622401 4.620936

model.models.37.VQC_update.weights f4 [2, 6]
000000 00 09 bb 40 7e 04 f2 3f 3a 90 9f 40 8d f6 dd 3f
       5.8448486 1.8907621 4.986356 1.7340866
000010 0e f2 aa 3f 27 63 02 40 cc 24 bf 40 a5 77 e4 3f
       1.3355119 2.0373018 5.973242 1.7849013
000020 f1 5c 49 40 38 42 8c 40 86 8b 0d 3e a9 05 06 40
       3.1462977 4.3830833 0.13822755 2.0940955

model.models.37.VQC_output.weights f4 [2, 6]
000000 95 52 ef 3f b6 5e 62 40 e2 32 0a 40 7a 52 ba 40
       1.8697077 3.5370307 2.1593556 5.822568
000010 e1 ee 9b 40 cb 33 9a 3f fd 4f a4 3f e1 3b d2 3f
       4.87291 1.2047056 1.283691 1.6424524
000020 5d 94 84 40 2a 0e b4 40 3c f6 8f 3f 9d cc 4a 40
       4.1431108 5.626729 1.124702 3.1687386

model.models.38.VQC_forget.weights f4 [2, 6]
000000 4e 11 9f 40 8b 40 c8 40 35 3a a1 40 1d 50 46 40
       4.9708624 6.257879 5.0383554 3.0986397
000010 58 75 c8 40 f4 ea c0 3f 5d 0b 6a 40 07 d4 aa 40
       6.264324 1.5071702 3.6569436 5.3383822
000020 be 02 55 40 4b d2 3e 40 76 df 62 3f bd eb 12 40
       3.3282924 2.9815853 0.88622224 2.2956383

model.models.38.VQC_input.weights f4 [2, 6]
000000 c2 f8 d4 3f 07 3b e5 3f 1a 47 97 3f 8b 96 85 3e
       1.6638415 1.7908639 1.1818573 0.26091418
000010 bc 63 a4 3f 78 c5 bd 40 47 ea 82 3f 60 7e 6e 3f
       1.2842937 5.930355 1.0227746 0.9316158
000020 6c 0e a9 40 83 c7 98 40 3c 00 29 40 64 d7 6a 40
       5.2830105 4.7743545 2.6406393 3.6693964

model.models.38.VQC_update.weights f4 [2, 6]
000000 6f c7 a5 3f 31 0a d7 3f 43 11 76 40 b7 60 8d 40
       1.2951487 1.6799985 3.8448036 4.418056
000010 ea e3 8c 40 b2 25 2f 3e a2 eb 62 40 17 c9 29 40
       4.4028215 0.17104223 3.545632 2.6528986
000020 9c b9 81 40 00 81 81 40 84 ac 82 40 a0 54 94 40
       4.0539074 4.046997 4.083559 4.63533

model.models.38.VQC_output.weights f4 [2, 6]
000000 30 ff 2b 40 1f e6 98 40 a0 d4 31 3e 71 62 b7 40
       2.6874504 4.778091 0.17366266 5.730767
000010 25 d7 9c 40 b5 59 8d 40 5c fd b5 40 86 10 6b 3f
       4.9012628 4.4172006 5.6871777 0.9182209
000020 59 0d 86 40 1f 3a 85 40 e1 da 32 40 25 44 55 3f
       4.1891294 4.163345 2.7946093 0.83307105

model.models.39.VQC_forget.weights f4 [2, 6]
000000 34 55 5f 40 b2 ca 7f 40 c0 3e 63 40 01 b3 1a 40
       3.4895754 3.9967465 3.550705 2.4171755
000010 92 d5 ff 3f da b5 7c 40 2c 3b 96 40 9a 55 db 3f
       1.9987051 3.9485993 4.694723 1.7135499
000020 1f 8b e8 3e 1a 22 8d 40 62 fe 43 40 c1 77 b5 40
       0.4541864 4.410413 3.0624013 5.6708684

model.models.39.VQC_input.weights f4 [2, 6]
000000 52 d4 47 3e ef cd b6 40 df 24 3b 40 43 9c ae 3f
       0.19514588 5.7126384 2.9241254 1.3641437
000010 da bc 61 40 9e 4b 92 40 62 38 bb 40 23 51 e4 3f
       3.5271516 4.5717306 5.8506327 1.7837261
000020 89 34 d5 3f 08 51 6a 3f 90 d8 2c 40 85 16 bd 3f
       1.6656657 0.91529894 2.700718 1.4772497

model.models.39.VQC_update.weights f4 [2, 6]
000000 e0 94 67 3f e1 40 d8 3f 34 bc b9 3f ca be c8 40
       0.9046154 1.68948 1.451056 6.2732897
000010 96 44 c8 40 a2 3e b7 40 80 ff c5 40 ce 2f 09 40
       6.2583723 5.7263956 6.187439 2.1435428
000020 4b 5d 6b 3e 7c 42 af 3f 2e 08 2e 40 bb 97 93 40
       0.22984807 1.3692164 2.7192492 4.612272

model.models.39.VQC_output.weights f4 [2, 6]
000000 fa 0e 9b 40 5f cf 4f 40 c4 4f 2c 3f 1d 69 e3 3f
       4.845578 3.247032 0.6730921 1.7766453
000010 49 18 88 40 4e 38 5a 40 71 57 13 40 f8 dc 94 3f
       4.2529645 3.4096866 2.302212 1.1629934
000020 e9 2a a2 40 be 8a c2 40 73 dd 2c 40 86 83 94 40
       5.067738 6.0794363 2.7010162 4.641055

model.models.40.VQC_forget.weights f4 [2, 6]
000000 53 f3 a8 40 bf e2 46 40 67 e5 81 3f 0a 6e bb 40
       5.2797027 3.1075895 1.0148133 5.8571825
000010 f6 91 36 40 ce fb 55 40 e3 a7 24 40 30 86 8e 3f
       2.8526587 3.343494 2.572747 1.1134701
000020 45 16 04 40 76 1d 6e 40 b3 0a 26 40 8d b2 8a 40
       2.0638592 3.7205482 2.594403 4.3342957

model.models.40.VQC_input.weights f4 [2, 6]
000000 40 93 5d 3f 09 e1 9a 40 a3 e9 8d 3f 0d 00 b9 40
       0.8655281 4.83997 1.1086925 5.781256
000010 09 84 c7 40 02 d7 9f 40 8f 5e b3 40 87 91 9d 40
       6.2348676 4.994996 5.605293 4.9240146
000020 15 a5 31 3f 9a 1d 6f 40 f2 ef 3c 40 34 93 52 3f
       0.6939252 3.7361817 2.952145 0.82255864

model.models.40.VQC_update.weights f4 [2, 6]
000000 a8 6b 9b 40 02 2a 23 40 5a 1d 61 40 33 c1 86 40
       4.8568916 2.549439 3.5174165 4.211084
000010 d7 23 68 40 50 52 53 40 bf ca 5f 3f 0a de ce 3f
       3.6271875 3.301899 0.8741874 1.6161511
000020 7c 6f 0c 40 e8 dd 0b 40 30 8a 85 3f b2 02 4f 40
       2.1943045 2.185419 1.0432796 3.2345395

model.models.40.VQC_output.weights f4 [2, 6]
000000 69 70 b8 3f 0a ba c4 3e bf 41 b0 40 88 66 07 40
       1.4409305 0.38423187 5.5080256 2.115633
000010 14 30 63 40 b3 18 8e 40 83 4f 95 40 4c 42 c6 3f
       3.5498095 4.440515 4.665956 1.5488982
000020 0c c5 07 40 de 94 6d 3f 92 3d 1c 40 0e 96 1a 3f
       2.1214018 0.9280528 2.441258 0.60385215
