saved_models/quGan-qu12-quen7-step100-iter20.pt (torch, 3303 bytes, 2 tensors)

weights f4 [12, 12, 3]
00000000: 3f6c 1b3f cef9 9a40 673a 903f 8d14 c740
00000010: bcf3 4a40 0d71 9540 36e4 b840 074a 6940
00000020: 8b6f 7540 07d7 b940 95c1 ae40 c13b 4840
00000030: eb1a b840 a5e6 af40 368f e13f 5f10 5640
00000040: 8e96 2e40 da68 1e40 bf0c be40 7a27 4440
00000050: 7772 c240 1145 883f 445b f63f 29e9 f53f
00000060: e50b 4040 fe35 a840 272f 193f 7b4a c040
00000070: 4da8 a63f 26d4 c33f cee6 fd3f 41b6 9d40
00000080: f7c4 1440 16ae a73f 80d0 aa40 36b7 af40
00000090: 65f1 8a40 0e80 873f 3b15 a040 5e35 8640
000000a0: 424a 3b40 c6b0 3640 4b8a 3d3e 7f1c 1c40
000000b0: 256d 0d40 13d7 2b40 faad d13f 565d c340
000000c0: 0bf7 b440 78ce b33f 4d63 4c3f acc5 5840
000000d0: 4a1e 1b40 351b 0940 ed67 a440 0cbc f03f
000000e0: de51 c540 fcb3 8d40 39dd d53e 1fb9 b340
000000f0: f35c 7b3e 71ca 993e b7b6 c43f b036 2740
00000100: 71b9 8f40 349b b53e 9b4f 653e 10cd 8e40
00000110: 45fd 5640 2dcb ab40 3d5c 8c40 fc63 323f
00000120: 956d a740 1962 2940 f09e c640 307f a040
00000130: 4232 223f 82de 6840 3cbc 9b3e d744 ec3f
00000140: e7fd 9f3f 2283 223f d904 b03f ee68 1140
00000150: b56b dc3f 4681 8940 2a6e bd3e 8aaa 603f
00000160: cf0c 9940 7971 6c40 5453 3540 96e6 a440
00000170: e614 4b40 5fa9 a640 98ea 8540 e108 5f3d
00000180: a21c 9540 3fa4 4740 991e a340 70c6 7f40
00000190: 6ffd af40 cb28 843e 1fe2 8f3f 6655 b740
000001a0: 503b c640 0ebe a340 5cb0 4540 feab 083f
000001b0: c495 e53f b2e2 5440 77d9 c840 a247 6240
000001c0: f442 ab40 759c 9c40 cd9f 973e fc79 e63f
000001d0: f7bf ab40 a4be 7b40 719f c73f 44a2 1e3f
000001e0: 7d89 1a3e 3078 c140 2d07 3c40 3162 053f
000001f0: 17de 1a3f b2f7 3440 1a84 263f b5e3 3d3f
00000200: 0aff a040 cc92 243f 359d 1540 6a4a 9f3e
00000210: 7e05 9e3f 4bb7 7640 c04c c340 c1d9 943f
00000220: fec8 fc3f a9a2 933f c667 313f 7f8c ac40
00000230: ff95 9b40 9abe e43f 4023 163f 3b87 b73f
00000240: ef79 8440 4960 a940 e464 c040 e7d0 9d40
00000250: 940e aa40 7612 eb3f 2e71 e53d bc2d 9a40
00000260: 0b80 5140 60a3 3a40 7173 8d40 22a6 3140
00000270: 855e 3b40 bda6 c740 04c7 9140 12da 4340
00000280: 467b 7340 9dd1 c83e 3382 9940 bfd1 a140
00000290: 1901 2840 7b8f f13f 267e 8c40 e866 2e40
000002a0: a908 5640 b797 c03e 7220 9f3e 35d6 c53d
000002b0: 3802 8340 0d39 0b3f 6474 a340 3788 2f40
000002c0: b1a6 3840 42ba 9b40 050e 1540 8bf7 e43f
000002d0: ee47 bd40 972e 8d40 eb1d 343f 2421 8540
000002e0: 04fc 5140 b406 7140 a9f1 c540 4da6 cb3f
000002f0: ee96 fa3d 1a56 b13f 120e 013e af0d 7f3f
00000300: 80d3 093f 7d13 bd3f f6ad ab3f a637 cb3e
00000310: 333a 533f 42dc be3e e22c 0540 ab61 8e3f
00000320: 80d8 6e3f 5507 1c40 77e1 ba40 8f7b 3940
00000330: d33b 0140 e0cb 903f fd98 5a40 49fb ae40
00000340: 9f85 c33d 9f16 b640 8cb2 ca3f d481 be40
00000350: 1d4a 8340 09da c13f d1cd 3040 810a 9c40
00000360: 77a8 9340 64d9 8240 8187 763f d198 4b3f
00000370: dc4a 8a40 cb9f 7f40 a751 4c3e 2ed7 c240
00000380: b074 333d 6b99 b040 9276 2a40 153d 1140
00000390: eb2d 933f d18f bd40 534b 3040 96e2 ab40
000003a0: ef7f 9d40 ecc7 903e 9f66 8c40 6683 1d3f
000003b0: f8bd 3440 b382 363f a6ec ae40 27a5 8740
000003c0: b701 4840 c9d8 9c40 0f5b 9e40 c22a 8c3f
000003d0: 07a2 ac40 455e 5f40 301e 7340 9bbd eb3e
000003e0: c7bd 953f 39ab 9140 6706 7740 709c 3f40
000003f0: 9e9d f93f 8b7a 3c3d cf23 073f c75e 7f3e
0.60712045 4.8429937 1.1267823 6.2212586 3.1711264 4.67005 5.777858 3.6451433
3.834933 5.8074985 5.4611306 3.128647 5.753286 5.496905 1.762183 3.3447492
2.7279391 2.4751496 5.939056 3.0649095 6.0764728 1.0646077 1.9246602 1.921178
3.000726 5.256591 0.59837574 6.009092 1.3020111 1.5299118 1.9836061 4.928498
2.3245218 1.3100002 5.3379517 5.4911146 4.341967 1.0585954 5.0025916 4.1940145
2.9264073 2.8545394 0.18509786 2.4392393 2.2097867 2.685002 1.6381218 6.1051435
5.6551566 1.4047384 0.7983902 3.387065 2.4237237 2.1422856 5.1376863 1.8807387
6.1662436 4.4282207 0.41770342 5.616348 0.24547176 0.30037263 1.536826 2.6127129
4.491387 0.35469973 0.22393648 4.462532 3.3592083 5.3685517 4.3862596 0.69683814
5.2321267 2.6466124 6.2069016 5.015526 0.6335794 3.6385808 0.3041705 1.8458508
1.249936 0.6348134 1.3751479 2.2720294 1.722037 4.2970304 0.3699811 0.8776022
4.7828135 3.6944258 2.833211 5.1531477 3.1731505 5.208175 4.184887 0.054451827
4.659745 3.1193998 5.097485 3.9964867 5.4996867 0.25812373 1.1240882 5.7291746
6.1947403 5.11695 3.0888891 0.5338744 1.793633 3.3263364 6.276546 3.5356221
5.351923 4.8940988 0.29614106 1.8005977 5.367183 3.9335108 1.5595533 0.6196635
0.1509151 6.0459213 2.937938 0.52102953 0.6049513 2.8276181 0.6504532 0.7417558
5.0311327 0.64286494 2.3377202 0.3111146 1.2345426 3.8549373 6.103119 1.1628953
1.9748838 1.1534015 0.6929897 5.3921504 4.86206 1.7870667 0.5864754 1.4338144
4.1398845 5.2930036 6.0123158 4.931751 5.3142796 1.8365009 0.11203228 4.818083
3.2734401 2.9162216 4.420342 2.775765 2.927644 6.239104 4.555544 3.060185
3.804399 0.39222422 4.7971435 5.056854 2.625067 1.8871912 4.390399 2.725031
3.3442786 0.3761575 0.3107944 0.096599974 4.094021 0.5438393 5.107958 2.742689
2.885174 4.8664865 2.3289807 1.7888044 5.9150305 4.411937 0.7035815 4.1602955
3.2810068 3.7660341 6.1857495 1.5910126 0.12235819 1.3854401 0.12603024 0.99630255
0.5383835 1.4771572 1.3412464 0.39690894 0.8251068 0.37277418 2.0808644 1.1123556
0.932991 2.4379475 5.8400226 2.8981664 2.0192764 1.1312218 3.4155877 5.4681745
0.095469706 5.6902614 1.5835738 5.953348 4.102797 1.5144664 2.762562 4.876282
4.6143146 4.089037 0.9630051 0.79530054 4.321638 3.994128 0.19953023 6.088767
0.043812454 5.518728 2.663487 2.2693532 1.1498388 5.9238057 2.7545974 5.3714094
4.921867 0.28277528 4.387527 0.61528623 2.8240948 0.7129318 5.4663877 4.23891
3.1251047 4.901463 4.9486156 1.0950549 5.3947787 3.4901288 3.7987175 0.46043095
1.169854 4.552151 3.8597658 2.9939232 1.9501226 0.046015304 0.52789015 0.24938498

note_weights f4 [20, 7]
00000000: 32ad 8840 f0e3 b740 e421 ff3f ca2c 7b40
00000010: 5c7c 3e40 b426 f83f aaff 083f 2898 4d40
00000020: d555 6940 2307 2640 f29d 9740 95ab 8dbd
00000030: 9b09 3740 6baa 1c40 43be 76bc 425c 6b40
00000040: c9c0 8a40 9118 b53e fb02 4240 3175 9340
00000050: 47a5 b040 757e 8140 fd53 d340 15c5 2840
00000060: a120 473f 6f0d 903c d54d 8b40 60b0 2140
00000070: 45b7 6840 59cf 8e40 a675 0040 33ab 8f40
00000080: 4eaf 9140 c5b8 6b40 0e85 0c3f 8ccc a140
00000090: cf56 a340 6189 b040 8886 0340 ab79 8b40
000000a0: 59cd ab40 ad14 0d40 8d4a 9a40 0596 7f3f
000000b0: 41f1 ae40 62e6 c3bc 3737 3e40 da7c 9f40
000000c0: a55d a9bd 96c0 f33f 6060 c140 fdf8 923f
000000d0: f3c2 3040 26af 2a3e 4c62 b940 7307 c13d
000000e0: 4ea9 b140 f33e 0940 c5fb 2c3f 2739 f73f
000000f0: ed51 bb40 5d71 0140 80d6 a340 b3ba 1140
00000100: 9b40 5340 bea9 9b40 1897 4f40 4ca3 163f
00000110: fbc8 b740 9717 8f40 2cd6 5140 8d32 3840
00000120: 8308 a540 8ac8 5240 3293 1f40 4214 653e
00000130: a2ab ad3f de7d 6040 0e65 0440 b7d9 db3e
00000140: e6da 1640 c204 a040 b0b8 c740 3a2a 363f
00000150: ef5f 363f 323d 963f 0b2d 8d3f 54e2 4e3e
00000160: 29c8 853f 8c3d c540 af1a 933f 16a5 fe3f
00000170: c1ee 1940 713f a13f 6a62 f53e 7774 283f
00000180: d64c 1640 8e14 a740 9d37 4840 1e5d e43f
00000190: f28e 2e40 db78 7940 69ec 2540 0000 973f
000001a0: ba7e c240 5994 0e3f 3436 8a40 3309 df3f
000001b0: fdb5 8040 ae2a 2640 bc75 a340 b4cf 463d
000001c0: ae54 7940 4321 6840 6965 543f 5ed3 273f
000001d0: 03f4 813f ac86 4840 3601 3640 17fd c040
000001e0: d600 1f40 4b9b 9540 78b2 223e 25d0 5040
000001f0: 6bfa af3f 6daa 4840 4cdb a140 e012 7040
00000200: c0da 8b40 92a0 283f 4048 4940 b849 7340
00000210: f68a ff3f 06f1 1a40 a6cc af40 f315 4f40
00000220: 0fb5 6340 9ca1 8240 d0ea 9540 59f0 1a40
4.271142 5.7465744 1.9932218 3.9246087 2.9763403 1.9386811 0.5351511 3.2124119
3.6458638 2.5941856 4.7380304 -0.06917492 2.8599613 2.4479015 -0.01506001 3.677506
4.3360333 0.35370305 3.031432 4.6080556 5.5201755 4.0466866 6.6040025 2.637029
0.7778416 0.01758453 4.353251 2.52639 3.636186 4.462811 2.0071807 4.4896483
4.5526495 3.6831524 0.54890525 5.056219 5.1043468 5.51677 2.0550861 4.358602
5.368817 2.204387 4.8216004 0.99838287 5.46695 -0.023913566 2.97212 4.9839907
-0.082698144 1.9043148 6.0430145 1.1482235 2.7618988 0.16668376 5.793249 0.09425249
5.551917 2.144467 0.6757167 1.9314317 5.8537507 2.0225441 5.119934 2.2770202
3.3008182 4.8644705 3.243597 0.5884292 5.7432837 4.4716296 3.278697 2.8780854
5.157289 3.29349 2.493359 0.22371009 1.3568003 3.5076823 2.068668 0.4293954
2.3571105 5.000581 6.241295 0.7115818 0.71240133 1.1737425 1.1029371 0.20203525
1.0451709 6.163763 1.1492518 1.989413 2.4051974 1.2597486 0.47926646 0.6580271
2.3484397 5.221259 3.1283944 1.7840917 2.7274747 3.8980014 2.5925543 1.1796875
6.0779696 0.5569511 4.3191166 1.7424682 4.0222154 2.596355 5.108122 0.048537925
3.8957934 3.6270301 0.8296724 0.65556896 1.0152591 3.1332197 2.843824 6.0308948
2.484426 4.6752067 0.15888393 3.2627041 1.3748296 3.135402 5.0580196 3.751152
4.370453 0.6587001 3.1450348 3.8013744 1.9964283 2.420961 5.4937315 3.2357147
3.557926 4.0822277 4.6849136 2.4209197
